models/model_2.pth (torch, 264083 bytes, 8 tensors)

weight f4 [256, 3, 3, 3]
00000000: 17b9 10be 0163 d1bd 4afa 12be 1407 3e3e
00000010: 051f 163d 4d45 0fbd 8b28 e83d 1add 363e
00000020: f887 ee3d 6661 5ebd 7c77 7c3d 6260 0f3e
00000030: 8851 263d a880 9bbd a82c e0bd 9195 083e
00000040: c46c 2d3e cccf 733c 6c9b d63d 1a0a 993c
00000050: 3a4b 8ebc 4b27 3a3e 7d1e e63d f4e0 19bd
00000060: e674 14be e367 c4bc 3b97 dbbd cace 553b
00000070: 5c34 be3d 1fe3 60bc 3844 e03c d3da 24be
00000080: f9f4 d3bd a73c b8bd feb1 063e 143c a63d
00000090: 68b8 ba3d 4ac3 3e3e 323e aebc eb30 853d
000000a0: bd49 eebd aa88 a73b 4e65 823c 98a6 b73d
000000b0: 71ab 56bd 100c 98bd 8727 203e 8fad 37bd
000000c0: 7484 32bc c1c7 2b3e f7b3 3abe 6d87 05be
000000d0: 0df8 a83d 2fe5 993d 79ea 093e a975 203e
000000e0: 2ab4 bd3d c94c 3c3e a4d6 e03d ee2d 87bd
000000f0: 6964 29be 5056 aebd aef6 283e 66fd a23c
00000100: 7a94 22be a251 ab3d 9c58 e8bd 72d9 97bd
00000110: 2356 47bb ac35 16be 4e56 e3bd 018f 11be
00000120: 5876 f43d ad4a 033e 0f89 5a3d 3181 1c3e
00000130: c36d cc3d ed8e 86bd a196 38be ea47 7d3c
00000140: a6c1 20be 793c 2a3e 03b6 2dbe eb85 b3bd
00000150: d529 ba3d a7cd a0bd 58ec d5bd 314a 223e
00000160: 2d9f 9c3b dfb3 2f3d 1a06 95bd 680c 3fbe
00000170: 1e2c 963d 255a 543d 55bd 773c 6a4e 07be
00000180: e5c1 c1bd 7c65 d23d 90be f43d dda3 3dbe
00000190: c475 2abe 0428 b6bc 70b5 2bba 8b99 c63d
000001a0: cdeb 4b3d 6d7a 0dbe e550 8abd 089f 73bd
000001b0: 1059 fc3d 6136 0c3e 9f11 f03d ebd9 ef3d
000001c0: a0f6 19be 5b38 be3b e3c8 97bd 5af0 01be
000001d0: 1eaf 423e 47e8 3f3e 4678 263e eab2 ffbb
000001e0: 49e7 8b3d 845e 143e ffe7 ef3d 27fe 31be
000001f0: c1c7 ccbd ce08 edbd 6d7b 993d d412 a03d
00000200: 7bee 2f3e 204a 1f3e cb47 713d 2c9d 52bd
00000210: f818 803c 3bad 2fbd 1997 a43d 45bd fc3d
00000220: bd45 c33d 52d1 0d3c 15cc 9a3d d882 d13d
00000230: cca3 013e 77d6 35be 1b37 76bd a89a 023e
00000240: 4e50 ddbd 274e 863c dff1 6ebc 8c8c 2cbd
00000250: 49ff 8e3d 200c 87bd 317a abbd 1fa1 2cbe
00000260: 2699 1e3e 2a70 97bc 7f73 0ebd 7730 fdbc
00000270: 9a33 903d ba07 20be af4f 43bd ca94 223e
00000280: 77ef 14be 8381 fbbd c9fa da3c b24d 393c
00000290: b1ad 2ebe 1bfd adbd fece 173e 0023 44ba
000002a0: aed0 3cbe bfb6 25be c5dd 99bc f25b b33c
000002b0: 6b58 78bd 511f 40bc 3919 713d 383c 1ebe
000002c0: b284 f3bd b78a c03d 2649 973d 985d dc3d
000002d0: dcf3 01bd da78 23bc 673a b93c 3779 2abe
000002e0: adfd 53bd 9078 853d e3cd b8bd 50e2 0c3e
000002f0: eaa8 19be 56ca 103d 7a98 00be f859 073e
00000300: 694a a33d d69e 3bbe cbd7 01be 13cb 0c3d
00000310: 7365 eebd a844 8b3a 0959 8e3c 0788 33be
00000320: 0a46 473e d9a4 05be 9186 803d fc86 28bd
00000330: cb07 29be e5c4 14bd 3bd9 e7bd d106 0d3e
00000340: 4c6e ed3d 478c 8abd 5504 c23d ea01 0fbc
00000350: 7916 ca3d 693a 9cbd 141b 013e d1e9 43bd
00000360: 8b2e a4bd 915c 1bbd 4da7 0bbe f122 b3bc
00000370: d9b9 543d 0b12 e43d 87d2 423e ad44 a93d
00000380: e36e d9bc 5da5 f3bc 3bf7 1d3e 2b0f fbbd
00000390: 5d12 413e 9983 11bb 7f70 4dbd b0ec 3e3e
000003a0: da0a 19be 31d8 1d3e c958 d73d 60b6 ea3d
000003b0: 346a e23d abc5 423b c9e6 25be fbf0 2f3e
000003c0: edb4 1bbe 0a9d 18be 0131 d6bd 5038 c0ba
000003d0: 1533 fd3c 3bf5 1dbe 09fd 313d a86b fabd
000003e0: 4f60 573d f773 28bd 31f1 3e3e c53b 84bd
000003f0: ba3c ccbd 077b b13d 703b 2cbe d359 ea3d
-0.14133106 -0.102239616 -0.1435329 0.18557388 0.036650676 -0.0349782 0.11335858 0.17857781
0.11647028 -0.054292105 0.061637387 0.14001611 0.040605098 -0.075928986 -0.109460175 0.13338305
0.16936022 0.014881086 0.10478863 0.018681575 -0.017369855 0.18179052 0.11236284 -0.037568048
-0.14497718 -0.023975318 -0.10722204 0.0032624477 0.092873305 -0.013726025 0.02737628 -0.160991
-0.10349459 -0.089959435 0.13153836 0.08116928 0.09117204 0.18629184 -0.021269891 0.06503471
-0.11635158 0.005112727 0.015917446 0.08967322 -0.052409593 -0.07424176 0.15640078 -0.044843253
-0.010895837 0.16775419 -0.18232714 -0.13039942 0.08250437 0.075144164 0.1346835 0.15669884
0.09262879 0.18388666 0.109784395 -0.06600557 -0.1654221 -0.085125566 0.16500351 0.01989622
-0.15876952 0.083651796 -0.11345026 -0.07414521 -0.0030416332 -0.14668912 -0.11100446 -0.14214708
0.11936635 0.12821455 0.053353366 0.15283658 0.09981873 -0.0657023 -0.1802621 0.01545904
-0.15698871 0.16624631 -0.16963963 -0.08765777 0.0909001 -0.07851725 -0.104454696 0.15848614
0.0047797174 0.042896148 -0.072765544 -0.18657076 0.073326334 0.05184378 0.015120824 -0.13213506
-0.094608106 0.10273263 0.119504094 -0.1851954 -0.16646487 -0.022235878 -0.00065501686 0.09697255
0.049785424 -0.13816233 -0.06753711 -0.059477836 0.12321675 0.13692619 0.11722111 0.117114864
-0.15035486 0.005805058 -0.07411363 -0.12689343 0.19012114 0.1874095 0.16256818 -0.0078033106
0.068312235 0.1448918 0.117141716 -0.17382108 -0.099990375 -0.11573945 0.07494245 0.07816091
0.17180817 0.1555562 0.058906358 -0.051419422 0.015636906 -0.042889815 0.08036632 0.12340788
0.09534786 0.008655863 0.07558457 0.102300346 0.1266014 -0.17757593 -0.060111146 0.12754309
-0.108063325 0.016394688 -0.014584034 -0.042126223 0.069822855 -0.065941095 -0.083729155 -0.16858338
0.15488109 -0.018486101 -0.034778114 -0.030906899 0.07041092 -0.15627947 -0.047683414 0.15877071
-0.14544474 -0.12280562 0.026730912 0.011310028 -0.17058446 -0.08495542 0.14825055 -0.0007482022
-0.1843898 -0.16182993 -0.018782506 0.021894429 -0.060631197 -0.011726216 0.058861945 -0.15452659
-0.11890544 0.09401458 0.07386999 0.10760039 -0.031726703 -0.009977544 0.022610856 -0.16647802
-0.051755596 0.06517136 -0.09023645 0.13758206 -0.15005842 0.035349213 -0.12558165 0.13217914
0.07973177 -0.1832231 -0.12679975 0.034373354 -0.11640444 0.001062532 0.01737644 -0.17532359
0.19460312 -0.13051166 0.062756665 -0.041144356 -0.16506879 -0.036320586 -0.1132073 0.13772132
0.11593303 -0.06765037 0.094734825 -0.008728484 0.098675676 -0.07628328 0.12607986 -0.047830407
-0.0801669 -0.037930075 -0.13638039 -0.021867247 0.05193505 0.11136254 0.19025622 0.08265052
-0.026542133 -0.029741937 0.15426342 -0.122587524 0.18854661 -0.0022203682 -0.050156113 0.18644977
-0.14945546 0.15414502 0.10514981 0.114605665 0.11055413 0.002971987 -0.16201319 0.1718177
-0.15205736 -0.14903656 -0.104585655 -0.001466522 0.030908147 -0.15425579 0.043454204 -0.12227565
0.05258208 -0.041126218 0.18646695 -0.06456713 -0.0997252 0.08666044 -0.16819549 0.11442914

bias f4 [256]
00000000: aa3f 9dbc 4edd d9bd 9f2e 0d3e a6b8 b03b
00000010: 4eef 363c 8ce8 1a3d 3e0d 1ebe aea2 4e3d
00000020: 3c9b c13d 8d4b 4bbd 804b 12be c081 32be
00000030: aa69 313e 39d9 0ebe fc5e 00be 1447 9e3c
00000040: beb8 133e 3fc9 fa3c dc0f 2e3c bed1 cbbd
00000050: 654d a1bc e1eb 88bc d02e fbbd a50a 1b3e
00000060: d70f 1cbe c769 f8bd c08f 06be 4fe1 21bd
00000070: 73e9 89bc 6bdc 993d eb85 c5bd 2d29 963d
00000080: 823b 19be e91b a0bd 8fa8 82bd 179a 0ebc
00000090: 42b7 2bbe f404 12be 72ea b7bd ca52 41be
000000a0: 178c d93c 1780 263e 402c 713d 8902 1a3e
000000b0: 0156 08be 486b f1bd 20fa 9a3d 1338 013e
000000c0: a44a 9d3d d5d4 ef3d 1a38 41bd a0dd 093e
000000d0: a5be 1bbe 7567 bcbd 1628 0cbd 895f 573d
000000e0: 7d05 4b3d 391d 793d a845 1b3c b174 afbd
000000f0: 5c5c 0bbe c5a8 56bb 34a0 47bd 17d8 ae3d
00000100: 39a2 133e 4e30 023d d9b1 bc3d c8dd d03d
00000110: 57ec b43c c8d6 ebbd a41c fbbd fe3c b2bd
00000120: 53a4 2cbe f502 2b3e 0bbc 1f3e bac5 d2bc
00000130: 92ae 353e 1086 e13d fdab f03c 9b22 433d
00000140: 53a4 1a3e b079 423c 1197 073d 7d74 ad3d
00000150: 6392 ebbd d18f ea3d 056f 443e 1ef1 19be
00000160: 3914 a93d f31a 1dbe bafc a2bd 0130 33be
00000170: 6e8c 663d 2a1e af3d 72b0 11be f80d 1fbe
00000180: eb7c e23c 36e3 f0bc 872b e3bb 40c9 d83d
00000190: 466b 233e b98a 173d 462a afbd 53ab f2bd
000001a0: dae0 61bd 32e1 ba3b 4c7c 093e 3a36 2dbe
000001b0: 5376 e83d e779 a3bc 0822 823c 7a3b 2d3e
000001c0: 4448 b53d f350 413e 9179 98bd d5c3 ff3d
000001d0: c7fe 82bd 940a da3d 3a75 ed3d bf32 dfbd
000001e0: 83e4 05bd 1e11 9c3c b1c1 9b3d 6f12 2d3e
000001f0: 2c56 093e 3f0c e4bd 1d3d 043e 65e1 423e
00000200: e77a ebbc ca75 9f3d d1ae ce3d bb73 873d
00000210: e1ac dd3d 3067 9a3d 6d59 173a c5b3 043e
00000220: fd16 97bd 31ba 91bd 68d4 ab3d bf0d 4e3d
00000230: 1885 8e3c 0ef7 06be 125a 3c3e 1e8b 32be
00000240: 789f 703b bdd4 313e d3a5 093e 843d 4c3d
00000250: 0006 05be 1aa0 9a3d f61a e73d 118a 1cbe
00000260: 599e 03be 5789 83bd 9bbd 0b3d 800e 313e
00000270: 752a 433e c893 e23d 54f1 a53d 95ff dabd
00000280: 2b6d caba fb42 20be 1b79 c23d 4449 783d
00000290: 40b9 a43d a7f1 25be f58d 33be ded5 093e
000002a0: 6ac8 30be e5e8 293d 2b61 753c c3fe 70bd
000002b0: b856 03bd c14b 7abb e562 cdbc 8a2f 3bbd
000002c0: f9f1 c8bd ee5c 0fbe 3aaa 0f3e 211f d0bd
000002d0: b2fd 68bd c4c4 8d3d dcfe 45bd db92 003e
000002e0: 45a5 9bbc b760 1abe 9596 d6bd a893 7fbd
000002f0: c3dc 8a3d 94f6 103e fb94 3fbe 211d 413e
00000300: d0b7 953d 7c40 9dba 9f3c 1abe 81d9 8f3d
00000310: ef2c 29bd 5f90 10bc b137 0dbe 4ece 2c3e
00000320: 1b15 bfbb c44e f1bd 199e 53bc 2883 4d3d
00000330: 7d62 8fbd 0065 c8bd c026 94bc 28e6 ec3d
00000340: 8b44 c73d 0709 b8bd b36a 9a3b efd9 2d3e
00000350: c4a5 37be 1ccd 043e 9b3e fabd a683 0abd
00000360: 2ca5 e43c 5fde 193e 7b04 f53c 1cd2 953d
00000370: bff9 c73d 18aa 0abe dc4a 783d efcf 27be
00000380: 7f49 293e cf7d 0dbe c85b 013e 6309 34be
00000390: e205 e7bd 50f2 003e 2411 42be 89e5 32be
000003a0: 80b1 093d 2ceb 803d f0a2 a1bd 5898 0a3e
000003b0: b290 303e 19c1 b33d d34c 273e 14bb bbbd
000003c0: d10d 26be 9d8b ce3b 5131 23be a27c b9bc
000003d0: ef34 da3d ffcb 17be 93f2 cd3d e140 a6bd
000003e0: bddf c7bd 6a22 173e 25fd 08bd 066c 1dbe
000003f0: 33eb 86bd 5ae4 2f3e c06c 923d 1827 dbbd
-0.019195396 -0.10637914 0.13787316 0.0053931056 0.011165453 0.03781943 -0.15434739 0.050448112
0.09453437 -0.049632598 -0.14286613 -0.17432308 0.17325464 -0.13950051 -0.12536234 0.019321002
0.14425942 0.03061354 0.010623898 -0.099521145 -0.019690225 -0.016714038 -0.12264788 0.1514078
-0.15240417 -0.121295504 -0.13140774 -0.03952151 -0.01683495 0.075127445 -0.096446835 0.073320724
-0.14964107 -0.078178234 -0.06379806 -0.00870373 -0.16769126 -0.14259702 -0.08980264 -0.18879238
0.026556058 0.162598 0.05888009 0.1504003 -0.13314058 -0.117880404 0.07567239 0.12619047
0.07680252 0.11710516 -0.047172643 0.1346345 -0.15209444 -0.0919942 -0.034217916 0.052581344
0.04956578 0.060818885 0.009477057 -0.08567179 -0.13609451 -0.0032754403 -0.048736766 0.085373096
0.14417352 0.03178435 0.09213609 0.101985514 0.022085352 -0.11515576 -0.12261322 -0.087030396
-0.1685956 0.16700347 0.15599076 -0.025729049 0.17742375 0.110118985 0.029378885 0.047640424
0.15101747 0.011869833 0.033103053 0.08469484 -0.115025304 0.11453212 0.19182976 -0.15033385
0.0825581 -0.15342312 -0.0795836 -0.17498781 0.056286268 0.08550675 -0.14227465 -0.15532672
0.027647456 -0.029405218 -0.006932679 0.105852604 0.1595889 0.03699753 -0.08552985 -0.11849084
-0.055146076 0.005703115 0.13426322 -0.16915217 0.113506936 -0.019955589 0.015885368 0.1691722
0.08851674 0.18878536 -0.07445062 0.12488524 -0.06396251 0.10646549 0.11594625 -0.10898351
-0.03268863 0.01905113 0.07605303 0.16901563 0.13411778 -0.11135148 0.12913938 0.19031294
-0.028745128 0.07786138 0.10091937 0.06613871 0.1082399 0.07539213 0.00057735184 0.12959202
-0.073774315 -0.07115591 0.08390123 0.050306078 0.017397448 -0.13180181 0.18393734 -0.17435881
0.0036716145 0.1736631 0.13442163 0.049863353 -0.1299057 0.07550068 0.11284439 -0.15287043
-0.12853374 -0.0642268 0.03411637 0.17290688 0.19059165 0.11063343 0.0810267 -0.1069328
-0.0015443912 -0.15650551 0.09495755 0.060616747 0.08043146 -0.16205464 -0.17534621 0.1346049
-0.17263952 0.04148187 0.01497678 -0.05883671 -0.032065123 -0.0038192126 -0.02507157 -0.045699634
-0.098117776 -0.14000294 0.1402978 -0.10162187 -0.056882568 0.06922296 -0.048338756 0.12556021
-0.018999705 -0.15075956 -0.1047794 -0.062396675 0.06780388 0.14156562 -0.18709175 0.18858768
0.0731045 -0.0011997367 -0.15062188 0.070239075 -0.041302618 -0.008823483 -0.13790776 0.16875574
-0.0058313734 -0.117826015 -0.012916111 0.05017391 -0.07001207 -0.09784889 -0.018084884 0.11567336
0.097298704 -0.08986097 0.0047124266 0.16977666 -0.17934328 0.12968868 -0.12218972 -0.033816956
0.027910791 0.15026234 0.029909363 0.07315466 0.09764432 -0.13541448 0.060618266 -0.16387914
0.16531943 -0.13817523 0.12632668 -0.17581706 -0.11280419 0.12592435 -0.18951851 -0.17470373
0.033616543 0.062948555 -0.07892406 0.13534677 0.17242697 0.08777065 0.163379 -0.09166542
-0.16216208 0.0063032643 -0.15936781 -0.022642437 0.106546275 -0.14823912 0.10056033 -0.081178434
-0.097594716 0.14759222 -0.033444542 -0.15373239 -0.065878294 0.17176953 0.07149649 -0.10700816

weight f4 [20, 256, 3, 3]
00000000: 2233 08bc 89af 71bc c87f 5b3c 14bf e73b
00000010: 9c02 ad3c 01bc 4cbc d341 813a 6177 deba
00000020: e978 4a3c 5088 093d 4560 293d 1651 093d
00000030: e1e2 c9bb c2c0 f23c 2516 af3c 5c24 f23c
00000040: 1787 0a3d 9e6d 3e3d 9ec3 9fbc 6c1e 04bd
00000050: 38d7 0bbc beb6 96bc 3d23 a73a 47a3 023c
00000060: 29b0 95bc f720 dbbc 633e 163c 4e67 59bc
00000070: 3f8b 01bd 8ea6 e7bc 7495 1cbd 97d0 20bd
00000080: a09b 1fbd e2b8 923c de64 51bb 6867 9cbc
00000090: 281a 98bb 23f2 a53c 6069 a43c d069 a63c
000000a0: 8870 953c 8c74 823c 1d54 9cbc 294f b93b
000000b0: 984e 23bc 2d83 183b b4ad eabb a638 c4bc
000000c0: 89b0 06bc f359 ccbc eac9 a4bc 00dc 18bc
000000d0: bef0 a7bc de6d 8fbc 60fc 2b3c e05f cdbb
000000e0: 0051 353b c0ef 5a3b 783d 7ebc 6e9f 86bc
000000f0: 4b8b c73b c049 f0ba 0e65 5c3c bbe0 40bc
00000100: e05c 263b e269 c0bb aa95 263c e820 89bb
00000110: 0df1 e8ba 5812 773c ff8f 503c 48fa c43c
00000120: 6e12 8bbc 300b 753c 738a 5c3c 1cdd 513c
00000130: 29dc a8bb 7b26 aabc b250 fb3a cd1e 69bc
00000140: 466d 743c b229 983c 2fe9 af3c ea72 d23c
00000150: cff7 bfbb f23e 4bbc 6451 ed3b d99c 83bb
00000160: 0a24 11bc af79 93bc 3a64 9e3c b09c 19bc
00000170: d34d 9a3c a3ca 1b3c 9b2b 45bc 5ad4 9f3c
00000180: 30b4 2f3c c83a a13b 927c edba bc05 c5bb
00000190: 2b08 163c 37c4 a63b 1782 fa3b 8a1f 313b
000001a0: f11b 08bc 3bb8 ca3c c324 983c 42c5 7f3c
000001b0: 959f c1bb 3239 4cbc 3334 78bc 9089 0239
000001c0: 4536 2d3c 6cb3 503c 2402 5f3c 2400 fdbb
000001d0: 3d3b 60bc c60c 0b3c a0bd 223b 0025 693c
000001e0: 40fc 4fbb df0b a7bc 1662 04bb c06f 043c
000001f0: 4bbf 1dbb f67b 333c 6ce6 97b9 efa9 5c3c
00000200: e791 5fbc 75ba 29bc 6048 e8ba a950 9abb
00000210: b8ef a138 bca8 823b 2bfd 683c 0b6c 353c
00000220: d3d8 8abc be92 3b3c eb22 b03b 7e80 98bc
00000230: e273 303c b393 8cbc 9ff4 bfbb 5a1a 6d3c
00000240: 4202 9cbc f9f0 2c3c 3dfc 833b a1c1 a3bc
00000250: 7e92 cdbb 56e1 423c 0677 d0bc c198 1e3b
00000260: 38e2 53bb 12f1 69bc 1765 633b 8358 53bc
00000270: 9d8e 713c f631 25bc c33d 90bc 9e52 933c
00000280: 7835 62bc 8c08 85ba 16e5 7bbc bf96 72bc
00000290: 1ba1 343a 91dd d8bb b0dd 8abb 35a5 8dbb
000002a0: b94c 9b3c e42f e03c 2b01 e73c cb28 b13b
000002b0: d03a ac3c ce2a 62bc f907 1e3a 587d 043c
000002c0: 38b4 4e3c 7920 e63c 9b78 da3c 05f9 ed3c
000002d0: 2a33 a13c 1017 353c 264a 0c3d e5f2 763b
000002e0: 34ed d7bb 3ac4 283b d526 cd3a 4967 5e3c
000002f0: 693e a83c 9765 c9bc d74b 7bbc 6b28 a73b
00000300: 2777 8abc e064 abbc 89a6 a23b 6664 33bc
00000310: 5701 74bb 1006 97bc 2a12 13bc b92e 80bc
00000320: 6778 7fbb 58b9 5d3c b0d7 35bb 087d 773c
00000330: 76e7 8b3b 9d17 8dbc d122 523b 954b 84bc
00000340: 986d 283c fd1d 803c 27c2 ab3b da9b 10bc
00000350: 678d 033b 56d3 b13b f799 acba d3c9 8b37
00000360: 3443 c03b 742e c53c 35ef f83c 6ca3 db3c
00000370: aab5 88bb 2d7a c53c f652 d6ba 7942 0cbb
00000380: c43e 973c 3725 84bc 11f0 85bc 6cff 49bc
00000390: e61a 033c a4b7 8d3c c7a0 84bc 6011 29bc
000003a0: 61b7 a8bb 55f1 bb3a 6b76 37bb a39b 5e3c
000003b0: e6ab 24bc fc93 21bc 5221 fd3a 806b 0c3c
000003c0: df9a 9ebc a595 843c b822 0abc 7d78 e1bb
000003d0: 1906 9d3b 03b7 833c dfd9 2cbc 4706 e93b
000003e0: d304 71b9 4cd3 14bb 775f a2bc f661 733b
000003f0: af24 7ebb 9025 8ebc b4bd f7bc 3957 053a
-0.008312972 -0.0147513235 0.013397165 0.007072339 0.021119408 -0.0124959955 0.0009861536 -0.0016972834
0.012357929 0.033577263 0.041351575 0.033524595 -0.0061610793 0.02963293 0.021372864 0.029558353
0.033820238 0.046491258 -0.019502457 -0.032255575 -0.008535199 -0.018397685 0.0012751591 0.007973499
-0.018272476 -0.026749117 0.009170148 -0.013269259 -0.031626936 -0.028277662 -0.038228467 -0.039261427
-0.038966775 0.017910425 -0.003195099 -0.019092277 -0.00464179 0.020257061 0.020069778 0.020314127
0.018242136 0.015924715 -0.019083077 0.0056551886 -0.009967469 0.0023271546 -0.0071618203 -0.023952793
-0.0082208 -0.024945235 -0.020115811 -0.009329796 -0.020500537 -0.017508443 0.010497183 -0.0062675327
0.0027666688 0.0033407062 -0.015517585 -0.016433444 0.006089603 -0.0018332526 0.013451828 -0.01177233
0.0025384948 -0.005871997 0.010167519 -0.004184831 -0.0017772034 0.015080057 0.012729644 0.024045125
-0.016976561 0.014956281 0.013460743 0.012809064 -0.0051531983 -0.020770302 0.0019173829 -0.014228535
0.014918631 0.01857457 0.021473495 0.02568956 -0.0058583985 -0.012405144 0.0072423685 -0.0040165004
-0.00885869 -0.01800236 0.019334901 -0.009375736 0.018835938 0.009508762 -0.012034322 0.019510437
0.010724112 0.0049203373 -0.001811879 -0.0060126465 0.009157221 0.0050893086 0.0076449024 0.0027026855
-0.008307443 0.024746051 0.018572217 0.015610995 -0.0059089162 -0.012464808 -0.015149164 0.00012449012
0.010572021 0.01273809 0.01361135 -0.007720964 -0.0136859985 0.008486932 0.0024832264 0.014230013
-0.0031736046 -0.020391403 -0.0020200065 0.008083284 -0.0024070318 0.010954848 -0.00028972642 0.01346825
-0.013645626 -0.010359396 -0.0017721765 -0.0047093225 7.721729e-05 0.0039874 0.014220516 0.011073123
-0.016949093 0.01144856 0.0053752563 -0.018615957 0.010769816 -0.017160272 -0.0058580185 0.014471615
-0.019044045 0.010555499 0.004027872 -0.01998979 -0.0062735667 0.011894545 -0.02544738 0.0024199935
-0.0032330882 -0.014278667 0.0034697705 -0.012899521 0.014743474 -0.010082712 -0.017607575 0.01798373
-0.013806693 -0.0010149642 -0.015374443 -0.0148064485 0.00068904617 -0.0066182096 -0.004237853 -0.0043226727
0.018957483 0.027366586 0.0281988 0.005406474 0.021024138 -0.013804151 0.00060284097 0.008086525
0.01261621 0.028091656 0.026668837 0.029049406 0.019677717 0.011052862 0.0342504 0.0037681398
-0.006589556 0.0025751726 0.0015651832 0.01357443 0.020537572 -0.024584575 -0.015337906 0.0051012537
-0.01690252 -0.020922124 0.0049637 -0.01094923 -0.0037232244 -0.018435508 -0.008976499 -0.01564728
-0.0038981677 0.013532959 -0.0027746968 0.015105493 0.0042695357 -0.017223174 0.003206421 -0.016149322
0.010280035 0.0156393 0.0052416506 -0.00882622 0.0020073296 0.0054268045 -0.0013168444 1.6664073e-05
0.0058673862 0.024070002 0.0303875 0.026811324 -0.0041720467 0.02410611 -0.0016351629 -0.0021401925
0.018462546 -0.016131027 -0.016349824 -0.012328964 0.008002019 0.01729948 -0.016189946 -0.010319084
-0.0051488136 0.001433889 -0.0027994167 0.013586911 -0.010050749 -0.009861942 0.0019312298 0.008570552
-0.019360958 0.016184637 -0.008431129 -0.0068808184 0.0047919867 0.016078478 -0.010549991 0.007111344
-0.00022985348 -0.002270895 -0.019820912 0.0037137247 -0.003877919 -0.017351896 -0.030241825 0.00050865446

bias f4 [20]
00000000: c7df 443b 80e0 07bc bc90 333c 93c6 7bbc
00000010: 844b c33a b7b3 5fbc 4b47 493b 7a5a 4abc
00000020: 3648 76bc 0d4b 943b 1b8d b93b d34b fb3b
00000030: 6045 1b3c ec24 80bb 3841 fbbb 03bd cf3b
00000040: 951f a83c fadc 06bc 4930 33bc 3405 673c
0.0030040608 -0.008293271 0.0109598 -0.015367168 0.0014899825 -0.013653687 0.003071266 -0.012350673
-0.015031865 0.0045255483 0.005662573 0.007668951 0.0094769895 -0.0039106514 -0.007667687 0.0063396706
0.020522872 -0.008231396 -0.010936805 0.014100362

weight f4 [20, 20, 3, 3]
00000000: 91b9 0ebd 9a2e 83bd 3140 453c b9ab 853c
00000010: 3a6c f4bc f239 2a3c 7501 953d a9cb 50bd
00000020: 2c5f 12bd 611c 7dbd b594 8c3d b189 ddbc
00000030: f901 45bd abc3 0b3d ff16 413d ba57 903d
00000040: caea 963d c855 783d fc85 113d fc32 b33c
00000050: a153 04bd 7dc5 68bd c495 853d 05ed 82bc
00000060: face a83c f476 43bd 2df6 9abc 78a0 ffba
00000070: 41b2 60bd 10b3 a83c 651a 28bd 6537 6b3d
00000080: 8d04 163d c440 4dbb d004 3abd f286 783d
00000090: 4169 273d 7f15 6bbd d6d5 1a3d 1a16 8f3d
000000a0: 21b2 2c3d 1bfa 653c ee3e 97bd a105 55bd
000000b0: f1ba b53c 8abb c4bc 528e 383d 2e34 e2bc
000000c0: 464e 4b3b ef26 abbb f396 3f3d fc9f 0bbd
000000d0: a5ac dbbc c654 933d f810 823d cc0f 2fbc
000000e0: b60c 3e3d 0200 e43c 8d54 2cbd 37c3 17bd
000000f0: e13a 70bb 8fb6 3d3d a0ef c8bb bd00 703d
00000100: f912 b8bb 3819 07bd 7bf9 143d 064a 9e3b
00000110: f0ce 363d 9fde 0abd 72a5 f0bc 9cf9 3c3d
00000120: ed42 dc3c bf85 693d eda7 91bb fcd3 3a3d
00000130: d08f 6d3d d01b 9ebb 02b6 413d 9e34 8ebd
00000140: 6d34 5abd de85 193d ee66 963b 2a52 123c
00000150: 367f 723d d6fa 5dbb 81e7 b9bc 9c85 a93c
00000160: 011e 153d 0f52 e13c c6d2 0cbd ffd9 3f3d
00000170: 6b26 2f3c 1a14 96bd d544 733d 2125 f3bb
00000180: 6b66 03bd a2be 183d f6ca 7e3c 7cf0 e6bc
00000190: 3a87 60bd b797 3b3d ed5c 7d3d a61e 8fbd
000001a0: 67d4 66bd fb55 c2bb 8245 81ba 1af4 25bb
000001b0: b0f1 f6bc 95e3 e7bc 25f8 a03c 4f72 303d
000001c0: 5c6b 60bd c40f cc3c 37b9 883d 6dd2 3cba
000001d0: 3526 443d 0f54 b13a 5b62 103b b80f a83c
000001e0: a5de e7bc 6d72 97bd 7868 6cbd 0d02 36bd
000001f0: ca5b 07bc c4ec e0bb 7627 b4bc c45c a63c
00000200: e7ad 193c adf5 76bd 59e1 ab3a 5473 33bd
00000210: 8931 92bc 2ad7 083d 1345 a7bb b841 62bd
00000220: d949 51bd 7655 163d c4a5 733d 2446 983d
00000230: 7ecd d9bc 1ea9 353d e150 983d 66e2 9b3c
00000240: a986 5bbd f400 79bd a509 923d 127d 80bd
00000250: 91ed c73c 398f 4c3c 305a 93bc 1de5 37bd
00000260: 04cb 4f3b c308 97bd 9cd2 653d f0ab 48bd
00000270: 41b2 23bd 0740 74bc c22d 663d 3a0c 753d
00000280: bc04 243b ca50 47bd 2e4e 75bd 8364 c73b
00000290: c896 57bd 291e 143d 7028 f9bb 437b 0dbd
000002a0: 2d5a 933d 9041 353d 48de 583d 8734 403c
000002b0: 8549 1c3a f73e cc3c 410f 28bc a2d0 0c3d
000002c0: f871 4c3d 7804 c8bb fd4c 95bd c021 0b3d
000002d0: da30 1e3d 8cef f83c 4e9b 6ebc 59e6 dcbc
000002e0: 69c6 433d cf42 f63b 47e3 933c 2402 fc3c
000002f0: 4e26 1fbd 7a1a 59bc b040 c6bc 0c45 12bc
00000300: ebc5 773d b22b 93bc d4ad 143c 45d2 4e3d
00000310: 4f03 7abc 370e e3bc be23 333d 17be 66bd
00000320: 96d8 2e3d a60f c3bc 0ad1 523d 831c dbbc
00000330: 29d3 5b3c c8cc 53bd 0cdf 213d 345a 583d
00000340: 8b7b 09bd aca5 1dbc cc94 fb3c 95df 8abc
00000350: 4e14 8dbd 7155 cebb e64a fd3c e0a8 903d
00000360: 826a 873c b906 1bbd 9a69 39bd 3c23 5439
00000370: cf2c 7abd f50d 19bd 958d 7e3d a0a8 62bc
00000380: 25ac a4bc 95f6 90bd d752 923d 63d6 ec3b
00000390: 1efc 503d 08a2 943d 5407 913d 9b28 373d
000003a0: 7e2b c03c 6dba 2d3c 54bd 693d 200f 66bd
000003b0: 276e 0c3d 4146 8dbd 97d6 33bc 54f5 653d
000003c0: 8766 8fbd cbf3 8abd 3aa0 483d 2cc0 8bbd
000003d0: 9756 6e3d bb55 2f3d 998d 7c3d b3ac 8e3c
000003e0: 083a 61bd 9ad9 6bbd a7b0 513c 9443 94bd
000003f0: 8f7b 6339 d604 9e3c bf2d 273b ed0d 87bd
-0.03484494 -0.06405373 0.01203923 0.016317235 -0.029836763 0.010389792 0.072756685 -0.050975475
-0.035735294 -0.061794642 0.06864301 -0.027043195 -0.048097584 0.03412215 0.04714107 0.070479825
0.07369001 0.060628682 0.035528168 0.021874897 -0.032306317 -0.056828965 0.06522706 -0.01598216
0.020606507 -0.047720864 -0.018916214 -0.001950278 -0.054857496 0.020593196 -0.041040797 0.057425875
0.036625434 -0.003131912 -0.045414746 0.06067557 0.040871862 -0.057393547 0.037801586 0.069866374
0.042162064 0.014036681 -0.0738505 -0.05200732 0.022183867 -0.024015207 0.045057602 -0.027612772
0.0031021996 -0.005223147 0.046774816 -0.03408812 -0.026815722 0.071939036 0.06350893 -0.010684919
0.04639884 0.027832035 -0.04207282 -0.037051406 -0.0036656188 0.04631668 -0.006132081 0.058594454
-0.005617496 -0.032983035 0.036370736 0.0048306016 0.044630945 -0.033903714 -0.029375765 0.046136484
0.026887381 0.057012316 -0.004445067 0.04561232 0.05799848 -0.004825093 0.047292717 -0.0694363
-0.053272653 0.03748118 0.004589907 0.008930722 0.05920335 -0.0033871434 -0.022693397 0.020693593
0.036405567 0.027504949 -0.034380697 0.046838757 0.010690312 -0.07328053 0.059391815 -0.0074201976
-0.032080095 0.037291177 0.015551319 -0.028190844 -0.054816462 0.045798983 0.0618562 -0.069882676
-0.056354906 -0.00593066 -0.0009862634 -0.0025322498 -0.030144542 -0.028306762 0.019649575 0.043077763
-0.054789886 0.024909861 0.06675952 -0.0007202987 0.047888 0.001352908 0.002203128 0.020515308
-0.028304407 -0.07394872 -0.057716817 -0.04443555 -0.00826163 -0.006864162 -0.021991473 0.020307906
0.00937984 -0.06029289 0.0013113423 -0.043811157 -0.017845886 0.03340832 -0.00510467 -0.055238456
-0.051095817 0.036702596 0.05948426 0.07435253 -0.026587244 0.044350736 0.074373014 0.019028854
-0.05359522 -0.060791925 0.07130746 -0.06273855 0.024405273 0.012485319 -0.01798734 -0.044896234
0.00317067 -0.07374718 0.056109056 -0.048992097 -0.039964918 -0.014907843 0.05619598 0.059826113
0.0025027236 -0.04866103 -0.05988901 0.00608498 -0.05263403 0.036161575 -0.0076036975 -0.03454138
0.07194934 0.04425198 0.05294636 0.0117312735 0.0005961883 0.024932368 -0.010257543 0.034378655
0.049913377 -0.0061040483 -0.07290075 0.033967733 0.038620807 0.030387662 -0.014563395 -0.026965307
0.04779664 0.0075152884 0.01805271 0.03076274 -0.03885489 -0.013250941 -0.024200767 -0.008927595
0.060491484 -0.017965171 0.009074647 0.050493497 -0.015259578 -0.02771674 0.04373526 -0.056333628
0.04268702 -0.023811173 0.051468886 -0.026746994 0.013417044 -0.051708966 0.039519355 0.0528204
-0.033565085 -0.009622019 0.0307106 -0.016952315 -0.068886384 -0.0062968065 0.030919503 0.0706346
0.01653028 -0.037848208 -0.045266725 0.00020231021 -0.06107789 -0.037366826 0.062146742 -0.013834149
-0.020101616 -0.07078282 0.07144707 0.0072277053 0.051021688 0.072574675 0.07081476 0.04471646
0.023458239 0.010603529 0.057065323 -0.056166768 0.034284737 -0.068981655 -0.010976455 0.056142166
-0.070019774 -0.06784781 0.04898093 -0.06823763 0.058188047 0.04280637 0.061658476 0.017416334
-0.054986984 -0.057580568 0.012798465 -0.07239452 0.00021694436 0.019289415 0.0025509445 -0.06594453

bias f4 [20]
00000000: 2144 1abc 51a6 283d bdf5 393d 8401 2bbd
00000010: 4794 91bd 73a6 5a39 aaea c4bc 8dd1 6abd
00000020: a410 91bd b688 34bd 5d5d a6bc f4f4 55bd
00000030: 2e42 973d 4ac3 1b3d 8b0b 033c 1d60 6abb
00000040: 5ec3 143d e4dc 7a3d beed 2d3d b509 f23c
-0.009415657 0.041174237 0.04540037 -0.041749492 -0.0710836 0.00020852107 -0.024037678 -0.05732875
-0.07083252 -0.04407569 -0.020308191 -0.05223556 0.0738567 0.03802804 0.0079983575 -0.0035762854
0.03631913 0.061245814 0.042463057 0.029545644

weight f4 [20, 20, 3, 3]
00000000: 2546 113d 8a14 1a3c 010e 69bd 9374 193d
00000010: 3de5 d1bc acb4 58bd e0ef 513d 002e 843d
00000020: ba54 49bd 0e0f cabc 6e9d 233c da7e 33bd
00000030: d7fe 883d fea2 18bc 9f58 edbc 2c02 96bd
00000040: 52d2 ef3c 978d 2d3d a484 a4bb e940 933d
00000050: f34b 2a3c 01a6 97bd b7a0 debc 6a3e 093d
00000060: 044b 443d a9b5 08bd 60ca 323d 8d34 eabc
00000070: c48b b23b 564f 003d 7a90 ee3c 23c4 17bd
00000080: 08bb 15bd 60ea 97bd 4775 81bd 8860 643a
00000090: f587 3d3c 0616 98bc df88 763d 85cb 7ebc
000000a0: 5e66 8e3d ca53 05bc 1c42 12bd 6c42 adbb
000000b0: a103 3dbd 3a60 563c 60b2 473d d538 fc3c
000000c0: 9b8e 963d ceab 7dbd 8e48 923d 7c0e 8f3d
000000d0: 795c 333d 77ee ec3c 8d8e 9d3c ffc0 9fbc
000000e0: 48c4 1e3d cd43 4bbc 06e7 60bc 0515 74bd
000000f0: fb4a 8fbd 1cad b1bc 254f 213c 78bc 06bd
00000100: 85d7 ea3b ea13 5b3d a999 61bd c92d 843d
00000110: 7516 523d 207c 583c d8cf 4c3d 6ca4 d2bc
00000120: 2355 7c3d 1f8f 93bd 3971 a4bc 7433 94bd
00000130: e502 403d cb6e aabc 5c83 833c ad03 66bd
00000140: 26b6 14bd 6c5f 6d3d fb96 04bd b9d9 2fbd
00000150: e162 883d d74f 143b 3c43 38bd d4f4 fc3b
00000160: 2753 13bd 0c1c 813d b795 093d 8f31 80bd
00000170: 3503 febc 33df 51bd 5818 4bbc fdc9 91bd
00000180: 8025 503d 3a2d 60bd 9940 cd3c 181b a73c
00000190: 62aa 2a3c 16b5 bd3c 24bf 8dbd eff4 993b
000001a0: c320 483d d417 5d3d 9841 293d f4d4 94bd
000001b0: f053 ff3c 4906 7bbd 4305 85bd 3551 853d
000001c0: affd 603d bc78 87bd 0f69 423c 889e 4dbc
000001d0: 636c 063d 5590 1fbd 5415 cb3b 4b32 6fbd
000001e0: b72c 523c 8091 2bbd 6925 1f3d 6472 ed3b
000001f0: fdca 093d 2ca4 f8bc 2fb1 7b3d 46a1 aabc
00000200: 593a 4ebc 3f50 30bd 96d9 d9bc 3d27 94bd
00000210: 6639 03bd cb7e 83bc 3093 59bd 4228 6e3c
00000220: 5567 d8bb f2f9 8c3d 8e36 563d 1a77 5b3d
00000230: 84a3 bdbc 91e4 953c 9129 8fbd 12ad 2cbd
00000240: 9dcd 253d 92fe d73c 53b8 02bc 56eb a1bb
00000250: 5ab4 4dbd c631 043c cdad a43c bedb 05bc
00000260: 0371 40bd ef42 73bd 372e 85bd 5db4 c4bc
00000270: bbbd 96bd ace2 23bc 2590 2e3d 0f4e 31bd
00000280: a9be 0c3d 39f1 083d 30c4 85bb 79dc 39bd
00000290: 1d5e 803d 9bca 5ebd ec45 543d 6406 5fbd
000002a0: 3112 2ebc 3d99 8a3d 17c5 63bd 90cb 303d
000002b0: 5bf9 63bd ba1c 463d 5096 233c a947 5cbd
000002c0: aa9e 9b3c 3eb2 97bc 7fdb 0d3c 7752 603d
000002d0: e12d 563c 90c2 44bc d1d9 753d d064 0fbd
000002e0: 3e7c 283d 4f7d 523d aaa4 dc3c 5cea 8bbd
000002f0: 04ae 1a3d d834 e83c 4f4c 333d 476c 9b3c
00000300: e002 8b3a e4b5 e2bb 8352 eabc c08a 003d
00000310: ff8c 003c 6ee2 553d fc8e 3a3b 11cf ba3c
00000320: 688b 2f3d 5d96 a13b 4260 52bc 65f9 723d
00000330: da55 063d a1a6 163d 4ba3 95bc 3a3a 07bd
00000340: e72c 0b3d 24ae 113d 57ac 87bc 408f 0fbd
00000350: c5f2 54bd 266f 67bd 56db d73c caa0 403c
00000360: 7433 5c3d 2e32 4abd 0989 893d 50e5 66bd
00000370: 9b4d 1b3d 2363 8b3c 98ba c8bc 1e3c 3dbb
00000380: 6350 913d 68b6 453c 3e9e 923d 0cd2 8ebd
00000390: afd7 f2bc 0cb1 1bbd 596c 8a3d 2c90 a9bc
000003a0: 9cb4 283c 59a4 853d 93c5 843b 62bb 863d
000003b0: d7bd 113b d468 38bd 9786 0cbd ab23 6b3d
000003c0: eac7 9e3b 7868 5e3d f757 20bd 53cf a9bc
000003d0: 0ce2 223c 7e4c 37bd a9d0 62bd 3a4a dfbc
000003e0: be93 8dbd 9277 633d 21a5 2abd ba80 95bd
000003f0: 2ce9 67bc 9a1f 873d 4f9e 8dbd 0e0e 5c3d
0.035467286 0.009404311 -0.05689812 0.03746469 -0.025622005 -0.052906677 0.051254153 0.06454086
-0.049153067 -0.024665382 0.009986265 -0.043822147 0.06689232 -0.009316204 -0.028972922 -0.07324633
0.029275093 0.04237136 -0.005020695 0.07190115 0.010394084 -0.074047096 -0.027176244 0.03350679
0.047923103 -0.03337637 0.04365003 -0.028589511 0.0054487903 0.03132566 0.029121626 -0.037052285
-0.03655532 -0.0741775 -0.06321197 0.0008711894 0.011568059 -0.01856519 0.060189124 -0.0155514525
0.06953119 -0.008137653 -0.035707578 -0.005287459 -0.04614604 0.013084466 0.048754096 0.030788818
0.073514186 -0.061931424 0.07142745 0.069851846 0.04378936 0.028922303 0.019233013 -0.019501207
0.038761407 -0.012406302 -0.013726955 -0.05959036 -0.06996723 -0.02168899 0.00984553 -0.03289458
0.007166805 0.05348579 -0.055078182 0.06454045 0.051290948 0.013213187 0.050002903 -0.025713168
0.06160463 -0.072050326 -0.02007352 -0.072363764 0.04687776 -0.020804783 0.016053848 -0.05615585
-0.036306523 0.05795233 -0.03237055 -0.042932246 0.06659485 0.0022630596 -0.044985995 0.0077196155
-0.035967972 0.06304178 0.033590045 -0.062594526 -0.031007389 -0.05123825 -0.012395941 -0.07118604
0.050817013 -0.05473063 0.025055217 0.020398661 0.010416599 0.023157638 -0.06921223 0.004698388
0.04885937 0.053977802 0.04132232 -0.0726718 0.031167954 -0.06128529 -0.06495144 0.0650963
0.05492943 -0.06614825 0.011865868 -0.012550004 0.03281821 -0.038956005 0.006197611 -0.058397572
0.012828044 -0.041886806 0.038854036 0.0072463024 0.03364085 -0.03035172 0.061448272 -0.020828854
-0.012587153 -0.04304528 -0.02659301 -0.072340466 -0.03203716 -0.01605167 -0.053118885 0.014535965
-0.006604115 0.06883611 0.05229812 0.05358038 -0.02314926 0.018297466 -0.0699035 -0.04215724
0.04047929 0.026366506 -0.007978517 -0.0049413843 -0.050220825 0.008068508 0.020102406 -0.008170066
-0.046982776 -0.059390005 -0.065029554 -0.024011785 -0.07360407 -0.010002773 0.042617936 -0.043287333
0.034361515 0.033433173 -0.0040822253 -0.045376275 0.06267951 -0.05439244 0.051824495 -0.054449454
-0.010624454 0.06767509 -0.05560788 0.043162882 -0.055657726 0.04836724 0.009984568 -0.053779278
0.018996555 -0.01851761 0.008658289 0.054766145 0.013072462 -0.012009278 0.06002218 -0.03500825
0.04113411 0.051389035 0.026933987 -0.0683181 0.03776361 0.02834551 0.043773945 0.01897253
0.0010605715 -0.0069186557 -0.028603798 0.031382322 0.007846116 0.052217893 0.0028466573 0.022803815
0.042857558 0.004931255 -0.012840332 0.059319872 0.03279672 0.036780003 -0.01826634 -0.033014514
0.03397837 0.035566464 -0.01656167 -0.035048723 -0.051989336 -0.056502484 0.026349705 0.011757085
0.053760007 -0.04936426 0.067155905 -0.056371033 0.037915807 0.017015046 -0.024503037 -0.0028874944
0.07095411 0.012067415 0.071590886 -0.06973657 -0.029643862 -0.038010642 0.06758947 -0.02069863
0.010296967 0.065254875 0.004051873 0.06578709 0.0022238398 -0.045021847 -0.034308042 0.057407063
0.004845609 0.054298848 -0.03914639 -0.020728743 0.009941589 -0.044750683 -0.055374775 -0.027257074
-0.06912945 0.055533953 -0.041661385 -0.07299943 -0.014154714 0.065978244 -0.069149606 0.05372434

bias f4 [20]
00000000: 9471 433d 2b77 7b3d 10ba 603d c62f 91bb
00000010: f1d1 81bd 4ace 3c3c c735 083d 73d0 003d
00000020: 872c 973d 79bd 05bd f4e7 82bb ad91 3f3d
00000030: 840b 6fba e332 363c f176 febc cace 8d3b
00000040: 12a3 44bd 7366 93bc 8520 893d dce9 5d3d
0.04771574 0.061392944 0.054864943 -0.004430744 -0.06338871 0.0115237925 0.03325441 0.031448793
0.0738154 -0.0326514 -0.003994936 0.046769787 -0.00091188424 0.011120531 -0.031062575 0.0043276297
-0.04800708 -0.017993188 0.06695656 0.054178104
