models/model_16.pth (torch, 892202 bytes, 14 tensors)

weight f4 [32, 3, 3, 3]
00000000: c423 c1bc a5d6 cebd 4300 e83d 5dc8 94bd
00000010: 42c6 8bbd 31a6 8fbd a9f9 b93d f3ce f7bd
00000020: 04cb 453e 5ce8 393e fa63 88bd 581b 96bb
00000030: 71e1 a2bd d2a7 20bc 7169 0c3d a5cc ab3d
00000040: 2d55 bf3c 8a6f 3bbe e10f ea3d 36ab eebd
00000050: 98e4 cd3d 1c76 03be d9d9 10be d147 c5bc
00000060: 468d b03d b522 51bd 8f9a 93bd 655f 42be
00000070: 07b8 2bbd 1f39 96bd ff81 1bbe a921 7bbd
00000080: b52e 513d 0f02 09be d76a 193e 9554 053e
00000090: 68a4 0e3e 1617 67bd 4b3d b6bd c60d 423e
000000a0: 0832 1dbe 77ce 113b 23a5 98bd 72a9 d2bd
000000b0: 005c 18be 3b7f 76bb 0e4f 273e fcce b3bc
000000c0: 83bd b4bd faec cdbd 3e48 053e 51b9 02be
000000d0: 6f73 583d ae3d 13be 065d 343e 973c d4bc
000000e0: 81af f13d cc6c 663d a466 233e 48ad a83d
000000f0: 0580 373e 7464 133e 0df0 bfbd 9f4e 9abd
00000100: 0452 db3d eb0b 323e 3d47 f23d 28bb 1abd
00000110: 200c 793d 7e14 de3c 8615 d6bd 80bd 05be
00000120: 3260 013e 6e1a 553c c18c 32bd 445d eebd
00000130: 067c 1a3e 6f07 1a3e 96ac a5bd 7e0f 683c
00000140: fe83 143e 476e 053e 49b9 01bb 9843 a83d
00000150: 92a1 a7bd 4b27 843d 3bb0 1dbe 3ab0 23bd
00000160: 15a3 32be fc24 c93c 63e8 7a3d e15a b3bd
00000170: 5fb2 053e c77f 37be 5016 d9bd 923c e13d
00000180: 11b2 a63d 6e4e 2a3e 5d51 a33c 151a ac3d
00000190: c77b 033e 9774 a93c 1fbc d2bd a9d8 3f3e
000001a0: 23fb 353e df23 31be 9e0e 00bd 0c13 b23d
000001b0: 7b6e b93d 619a d53c 2f52 b73d f47e 8e3d
000001c0: f3e5 c2bd 9c1e 0c3e e08d 34be ecaf 723d
000001d0: 533b 33be 894f c9ba 4943 b13a 1b6a 8d3d
000001e0: a0de 15bd 62af 8e3d 10e5 683d 9f1b 113e
000001f0: edc3 3ebd 9a95 01be 0d72 263e 3d0e c9bd
00000200: 02e7 1e3e ba5d 163e a354 64bd 6ad9 c23d
00000210: 38ef 9bbd 64d3 19be 343c 72bd 152a e13d
00000220: ed62 603d 9154 be3c b6c0 853d ea02 2ebe
00000230: 0399 953d 35cd b8bd 6662 0ebd ca3b 0c3e
00000240: ea9b 063d bcb8 2cbd 6784 0b3e 76ff 2d3d
00000250: bd24 31be 9416 29bc b705 c4bc 639e d1bc
00000260: c799 ed3d 5f95 463d 5fa9 8f3c a0f3 cdbc
00000270: 0ad1 bb3d 6bc2 3d3e 1df6 33be ba47 283e
00000280: 3569 38be 38bb 19be 808b 4d3c 02e6 823d
00000290: bb27 85bd d2f2 3f3e f15f e4bd d003 47bd
000002a0: c5b9 6abd 340a b9bc 12e4 38be 59a3 003d
000002b0: 4a7f bbbd b46e b0bd c440 b6bd 89ab 12bd
000002c0: 6a6e b53d 72e5 7b3d 55a2 eabd 9ee3 1c3c
000002d0: 62e1 36be 792e 15be ce7a ee3c f2da ec3c
000002e0: 4fcd 80bc a503 0dbe 2a13 393e 4310 b4bd
000002f0: 2248 bcbd 130f 28be d57e 013e f9da 593c
00000300: 49a5 583d 6582 703d 4632 bc3d 73b8 73bc
00000310: a0ce e23d 4048 1b3e f9fb 193d 50e1 683c
00000320: 8f4e 3a3e 6119 763b 6572 d7bd d8bc 41be
00000330: ef29 c8bd 5444 ac3d 4cc5 2bbe f569 7f3d
00000340: 1492 c93b cce2 1fbe 12f7 a9bd fa5d ed3d
00000350: faac d43d d580 c3bd 95c8 ec3d cb93 c93d
00000360: 9a8c 023e fc74 fdbd b24c 1f3e 01e9 28be
00000370: d391 14be c45e a9bc b0ad 043e 6d4c 063c
00000380: 90e6 e0bd b98b cf3d 9dd0 343e 17cb f1bd
00000390: 89d0 08be 930c 31bd f7f2 85bd 3350 413e
000003a0: 86c7 003e 3b24 af3d 9585 3cbe 6c11 36be
000003b0: e653 2fbe 79bb 853d dbaa ddbd cacc 393e
000003c0: f09e 77bd 2f5d c53b e9b2 873d e219 5cbc
000003d0: 4b60 41be 32ad e03c e51f b73c 221e 29be
000003e0: d1c3 15be f09b 40bd 375f a23d 2b5e 2c3e
000003f0: 2f94 1fbe c8fc 17be 991f c1bd 3a0f 083e
-0.023576625 -0.10099534 0.11328175 -0.07264779 -0.06824924 -0.0701412 0.09080822 -0.12100019
0.19315726 0.18155044 -0.06659694 -0.0045808963 -0.07953156 -0.0098056365 0.034280244 0.08388642
0.023356045 -0.18304268 0.1142881 -0.1165375 0.100533664 -0.12838024 -0.14145602 -0.024082096
0.08620696 -0.05105849 -0.07207214 -0.18981703 -0.04192355 -0.07335114 -0.15186308 -0.061311398
0.051069934 -0.13379692 0.14982162 0.13020547 0.13929904 -0.0564185 -0.088984095 0.18950567
-0.15351117 0.0022248307 -0.07453372 -0.102862254 -0.14878845 -0.0037612456 0.1633875 -0.021949284
-0.08825209 -0.10054965 0.1301584 -0.12766005 0.05284446 -0.14378998 0.1761361 -0.025907798
0.11801053 0.0562561 0.15957123 0.08236176 0.1791993 0.14393789 -0.09371958 -0.07534527
0.107090026 0.17387359 0.11829994 -0.037776142 0.06080258 0.02710938 -0.10453324 -0.1306057
0.12634352 0.01300679 -0.043591265 -0.11638883 0.15086374 0.15041898 -0.08089559 0.01416385
0.14503476 0.13030349 -0.0019794276 0.082160175 -0.08185114 0.06452807 -0.15399258 -0.039962985
-0.17445023 0.024553768 0.061256777 -0.08757568 0.13056324 -0.17919837 -0.10599959 0.10997881
0.08139432 0.16631481 0.019936258 0.08403412 0.12840186 0.020685477 -0.102897875 0.18734993
0.17771582 -0.1729884 -0.03126394 0.08695039 0.090542756 0.02607459 0.08951222 0.06957808
-0.095165156 0.13683552 -0.17632246 0.059249803 -0.17503099 -0.0015358786 0.0013524081 0.06905004
-0.036589265 0.06967045 0.056859076 0.14170693 -0.046573568 -0.12654725 0.16254444 -0.09817169
0.1551781 0.14684191 -0.05574478 0.09514125 -0.07613987 -0.15022045 -0.059139445 0.10994355
0.054781843 0.023233684 0.06530897 -0.16993299 0.07304575 -0.09023515 -0.03476181 0.13694683
0.032863535 -0.042168364 0.13624726 0.042479955 -0.17299171 -0.010320324 -0.023928506 -0.02558822
0.11601596 0.048482295 0.017536817 -0.025140584 0.091707304 0.18531196 -0.17574354 0.16433612
-0.18008883 -0.15012825 0.012545466 0.06391527 -0.065017186 0.18744972 -0.11151112 -0.04858762
-0.05730607 -0.022587873 -0.18055752 0.03140578 -0.09155138 -0.08614865 -0.08899072 -0.03580812
0.088589504 0.061498113 -0.11456744 0.009575753 -0.17859414 -0.14568509 0.029111292 0.028912995
-0.015722899 -0.13770922 0.18073717 -0.08792164 -0.09193446 -0.16412 0.12646039 0.013296836
0.052892003 0.058718104 0.091892764 -0.014875519 0.11074567 0.1516428 0.037593815 0.014213875
0.1819403 0.0037551748 -0.10519866 -0.18919694 -0.09773623 0.0841147 -0.16774482 0.062356908
0.006151447 -0.1561386 -0.08299078 0.1159019 0.10384555 -0.09546057 0.115616955 0.098426424
0.12748948 -0.123758286 0.155566 -0.16495134 -0.14508753 -0.02067507 0.12956882 0.008196932
-0.10981476 0.10134072 0.17657705 -0.118063144 -0.133608 -0.043224882 -0.065404825 0.1887825
0.12576112 0.08551832 -0.18410333 -0.17780083 -0.17121848 0.06529898 -0.10823604 0.18144527
-0.06045431 0.0060230712 0.06625921 -0.013433905 -0.18884389 0.027426336 0.022354076 -0.16515401
-0.1462548 -0.047023714 0.07928317 0.16832797 -0.15583871 -0.14842522 -0.09429855 0.13287058

bias f4 [32]
00000000: 58ff 393e 9682 13be 0730 c8bb c371 153e
00000010: 22e4 3fbe bb78 fc3d 7dc5 e93c 0e4d 3fbe
00000020: 3824 0a3e aa96 7f3c d55e 3e3e 4f44 4ebd
00000030: 3a42 81bd 8f62 983d 0950 cb3d a786 aa3c
00000040: 9d6b 463d 5fe6 e93d 9d4b 083e e921 00be
00000050: 6bc2 6dbd 5dd6 293e 301a f83d c784 253e
00000060: 85ef f53c 4d5d 413e a3c4 3abe 83c3 f03d
00000070: ca13 043e 5683 5a3d 7067 27be a2e0 b3bd
0.18163812 -0.14405283 -0.006109241 0.14594178 -0.1873937 0.12327715 0.028536553 -0.18681738
0.13490379 0.015599886 0.18590863 -0.050358113 -0.0631146 0.074406736 0.09927375 0.02081616
0.04844247 0.11420893 0.13310094 -0.12512936 -0.05804674 0.1658568 0.1211437 0.16163932
0.030021438 0.18883248 -0.18239073 0.11756041 0.12898174 0.053347908 -0.16348052 -0.0878308

weight f4 [64, 32, 3, 3]
00000000: cb56 cd3c 6ab1 5c3c 87b3 043d 1ba4 d33b
00000010: 1a8d 10bd 0a19 873c 2467 84bc bc4d 6a3d
00000020: 5990 df3c cd9c 083d ca12 19bd 4d26 493d
00000030: 55ba 903c b8c5 cebc 965c 993c 2916 183d
00000040: 0b8f f43c c77b 3e3d 01b3 533d f85c 253d
00000050: c4e3 fabc 6f6c 113d 1ba2 913c 0834 aa3c
00000060: fbfe 403d 25a2 163d c89f 3abd 6095 b73c
00000070: 2330 32b9 9cdc 37bd fe66 df3c acb6 583d
00000080: f573 36bd d184 2d3d bd9e c93c 1a7f 4c3d
00000090: 7527 323b ed67 68bc 890f 67bc 6f23 2ebd
000000a0: e617 64bd 1f41 4a3d 5eb0 e6bc b743 e4bc
000000b0: 3013 123d 07cb 543d cbb4 a13c d25f 883c
000000c0: 495d afbc 51ed 333d 8af8 12bd d01e 5d3d
000000d0: e7b2 1a3c f925 13bd 14c7 ff3c e18a 063d
000000e0: 011f 52bd 3f37 533d 62da 683d c906 4b3d
000000f0: 81fe 463d f4de e8bc c2f5 3bbd 37cd abbc
00000100: bd47 533d 321e 1fbd cf9c 0f3d 708c 1bbd
00000110: 56be d2ba e40e 0c3c a298 42bd 1c83 aabc
00000120: 2679 69bd 4767 c5bc 903f 6cbd 17d5 0a3d
00000130: 80b2 2f3d 421c 25bd 51bf 4cbd 3df7 15bc
00000140: 086f 51bc fe45 c93c db92 58bd d7a6 bfbc
00000150: d99c 60bd aa76 a53c 55fa 203c 851d 5c3b
00000160: a295 9b3c 737b 0cbd 69dd 113d 4d4e 1cbd
00000170: e452 6abc 4e28 5ebd 2ce2 5bbd 3108 2d3d
00000180: 328d 87bb d6b6 073c 9ab7 cb3c e22f 3fbd
00000190: d221 713d 4fd5 443c 0a7b 623d 7c06 2e3d
000001a0: c1f9 3bbd 4c16 af3b 76ac 2dbd 220b 513d
000001b0: caa5 afbb 1fa9 65bd e4c0 753d feac e4bc
000001c0: a630 e23c 29b0 1bbd e8a4 41bd dc52 7f3c
000001d0: 3c6c 433d 8283 24bc 6878 5c3d f895 97bc
000001e0: 5446 2cbc c829 4a3d cc72 293d b702 b8bc
000001f0: e1d3 0e3d e035 3c3a d329 dfbc ac47 12bc
00000200: ddcb 1b3d 139d 81bc 1438 42bc 2557 f3bc
00000210: 0c78 023d ada2 483c 8c5e 1c3d 7a5c e8bb
00000220: 74dd 5cbb 6105 eb3c da3f 3c3c 8963 ff3c
00000230: d47e 37bd 9f23 f63b 35ba 0b3d 0706 fcbc
00000240: d341 f33c 0ce0 183c 9d36 e1ba 9c70 f03c
00000250: 379f 42bd 797f e73c 4fab 323d 1a5d 293b
00000260: e7f8 5a3d c900 fcbc 33e2 2b3c cf15 d93c
00000270: 2969 ba3c c543 30bc bc2c 69bd 1114 5d3d
00000280: 149f 3f3d acbb 3b3c dfc2 623d 4d8a f1bc
00000290: c48d e9bc 421b 663d c0d4 c83c da25 553d
000002a0: b7fc 39bd 62b9 973c 64f3 e23c 51f7 21bd
000002b0: 90c2 0f3d a417 a03c c525 0fbd fe76 243d
000002c0: 826d b83c 4807 87bc 5c9b 33bd cb7f 54bd
000002d0: eecf 5d3c d21f 1dbd 1855 3cbd 89f3 4a3d
000002e0: 0736 5fbd 6cb4 873b b89c 3e3d e5fd 61bd
000002f0: 9c39 3f3d d5f8 883c ccde bbbc bc75 e2bc
00000300: 2499 573d becc 883b fbae fa3c da59 d13c
00000310: c782 543d fab5 58ba f642 103d 4163 5d3d
00000320: a506 39bd 0943 1f3c dfa6 90bc dd88 13bd
00000330: 57e1 ad3c 4e6f 9e3c 64a9 40bd 6517 3bbd
00000340: cd2a a93c 690c e73c d8c0 5cbd c9d9 c43c
00000350: 589d 0f3d ecc9 853c e9e1 11bc 0bcc 3a3d
00000360: 6988 4fbd 9a28 a33c a04d e63c d2e5 71bd
00000370: 7eda ea3b ecd3 1e3d 3078 f33c d2f8 173d
00000380: 16f3 cf3c b92e 1dbb 8cb9 363d 9d8e e8bc
00000390: bbd2 27bb f3bb 2fbc 2dfa b33c 5ea7 debc
000003a0: 44e6 62bc 4e6f 13bc f744 f6bc d3cd a83c
000003b0: 5af7 603c 77b5 fbbc 01ff 363d 3e70 16bd
000003c0: 5597 313d 1134 ac3c cb02 76bd 3d88 1cbc
000003d0: 59fa 5d3d 8235 fb3c 96ce 37bd 7ec0 a3bc
000003e0: 39c8 de3c 9bef 283c aae8 c3bb 305c 69bd
000003f0: 253d 1dbc 2dfa 1fbd 3b1d 49bd 2a41 323d
0.0250658 0.013470033 0.032397773 0.006458772 -0.035290815 0.016491432 -0.016162463 0.05720304
0.02729051 0.033352662 -0.037371434 0.049108792 0.017666975 -0.025240764 0.018720906 0.03713051
0.029853364 0.046504762 0.051684383 0.040371865 -0.030626185 0.0355038 0.017777493 0.020776764
0.04711817 0.036775727 -0.045562536 0.022410095 -0.00016993335 -0.044888124 0.02727079 0.052908584
-0.04454418 0.04236299 0.024611825 0.0499259 0.0027184163 -0.014184934 -0.014102825 -0.04251426
-0.055686854 0.04937851 -0.02816027 -0.02786432 0.03566283 0.051951434 0.01973953 0.016647253
-0.021406787 0.043927494 -0.035881557 0.053984463 0.009442068 -0.035924885 0.031222858 0.03284729
-0.0512991 0.05156636 0.05684889 0.049567018 0.048582558 -0.028426625 -0.04588867 -0.020971878
0.051582087 -0.038847156 0.035061654 -0.03797573 -0.0016078453 0.008548472 -0.047508843 -0.020814471
-0.0570003 -0.024097098 -0.057677805 0.033894625 0.04289484 -0.040310152 -0.04998714 -0.0091531845
-0.01278282 0.024569508 -0.052874427 -0.023394985 -0.05483708 0.020198185 0.009825309 0.003358693
0.018992249 -0.034297418 0.035611544 -0.03816061 -0.014301989 -0.054237656 -0.05368249 0.04224414
-0.004136705 0.008283338 0.024867821 -0.046676524 0.058870144 0.012013747 0.05529312 0.042486653
-0.04589248 0.005343234 -0.0424008 0.051036008 -0.00536034 -0.05606949 0.059998408 -0.02791452
0.027611088 -0.038009796 -0.047276407 0.01558372 0.047710642 -0.0100411195 0.053825766 -0.018504128
-0.010514814 0.049356252 0.041369244 -0.022462232 0.034870032 0.0007179659 -0.027241623 -0.008928221
0.038036216 -0.01582197 -0.01185419 -0.02970464 0.031852767 0.012245816 0.038176104 -0.007091102
-0.0033701332 0.028689088 0.011489833 0.031175392 -0.044798687 0.0075115706 0.034113128 -0.030764593
0.029694473 0.009330761 -0.0017182414 0.029350571 -0.04751512 0.028259026 0.043620404 0.0025842846
0.053460028 -0.030762093 0.010490942 0.026499657 0.022755222 -0.010758345 -0.056927428 0.053974215
0.046782568 0.011458319 0.055361625 -0.029484892 -0.028509982 0.05617834 0.02451551 0.05203805
-0.045407023 0.018521015 0.027703948 -0.0395425 0.03509766 0.019542523 -0.03494813 0.040152542
0.022513155 -0.016482964 -0.043849334 -0.051879685 0.013538344 -0.038360424 -0.04597959 0.04954866
-0.054494884 0.004141381 0.046536177 -0.055173773 0.0466858 0.016720215 -0.022933386 -0.02764403
0.05263628 0.004174798 0.030601015 0.02555554 0.05188253 -0.0008266863 0.03522011 0.054049734
-0.045172352 0.009720572 -0.017657695 -0.036019195 0.021225614 0.019340184 -0.047036543 -0.045676608
0.020650292 0.02820416 -0.053894848 0.02402963 0.035062164 0.016331635 -0.008903959 0.045604747
-0.0506672 0.019916821 0.028113186 -0.059057064 0.0071671596 0.038776323 0.029720396 0.037102528
0.025384467 -0.0023984148 0.044610545 -0.028388316 -0.0025607783 -0.010725963 0.021969879 -0.027179416
-0.013848845 -0.008998705 -0.030062182 0.020605957 0.013730848 -0.030726178 0.044676784 -0.036728136
0.043357212 0.021020921 -0.060061257 -0.009553966 0.05419383 0.030665163 -0.04487475 -0.019989248
0.027195083 0.010311033 -0.0059786635 -0.056972682 -0.0095970975 -0.039056946 -0.049100142 0.043519177

bias f4 [64]
00000000: d398 5a3c e2fc 633d 0e68 32bd e015 4abd
00000010: 0f4a 4b3d bb1b 143d 30b9 7a3d a7ce 73bd
00000020: 50de 913a a434 d43b 48e7 cdbc 219c 7f3c
00000030: 5986 b03c 99dc 753d 3bd3 373c 4399 343d
00000040: c060 43bd 1aac fa3b 5c34 11bd 6b4c c83b
00000050: a0e9 513d b251 173c eccf 0fbd ea11 11bd
00000060: 3c31 a63c 04c7 0dbb 0f74 a2bb 1ef9 43bd
00000070: 9de5 3dbd f9ac 42bd 5f65 c43c 0e12 12bc
00000080: 569a 2c39 afa9 c4bc 2b57 643d 117d 18bd
00000090: ff18 06bd 0690 10bd fa9c 2abd d192 0dbd
000000a0: df96 cd3c 3285 c3bc 3ea7 6d3b 62a6 df3c
000000b0: 8303 babc 9e56 eebc 62c4 17bd b5d2 fe3c
000000c0: b625 7d3b f300 603c ce4d 02bc 6722 fc3b
000000d0: 340c b4bc 3f0a 62bd c4cf be3c fc7f 393d
000000e0: 3887 11bd 351b 0bbc f29f 553d 4c4c f23c
000000f0: b7f3 383c 031e 493c 676b 0abb 5abd 9cbb
0.0133421 0.05566109 -0.043556266 -0.049337268 0.049631175 0.03615926 0.061211765 -0.05952325
0.0011128876 0.006476002 -0.025134698 0.015601189 0.021548437 0.06002483 0.011219795 0.044091474
-0.04769969 0.0076499106 -0.035450324 0.0061126254 0.051248193 0.009235786 -0.0351104 -0.035417475
0.020287149 -0.0021633515 -0.004957683 -0.047845 -0.046361554 -0.04752824 0.023974119 -0.008915437
0.00016460693 -0.024006693 0.055747192 -0.037228648 -0.032738682 -0.0352936 -0.04165361 -0.034563843
0.025096355 -0.023867223 0.0036263014 0.027301017 -0.022706753 -0.029094037 -0.03705252 0.031106332
0.0038627214 0.013672101 -0.00795312 0.0076945308 -0.021978475 -0.055185553 0.02329243 0.04528807
-0.035529345 -0.008490373 0.05215449 0.029577397 0.011288575 0.012275222 -0.0021121146 -0.0047833147

weight f4 [96, 64, 3, 3]
00000000: fdca 153d cd56 f2bc dfd3 a3bb 4bd5 adbc
00000010: 914d 273d 4fbd d3bc 6df9 90bb de34 0dbd
00000020: 11da 56bc 3767 94bc c44d 24bc 3639 fdbc
00000030: f6d2 6a3c 4996 b0bb b6b7 af3c 4ce8 fbbb
00000040: ce94 05bd 42bf 0abd ba71 83bc b259 e33b
00000050: c3c0 663b 2d70 33bc ece0 2a3c cb3c ce3b
00000060: f64d 16bc 9da5 69bb b459 b63c ee20 dfbc
00000070: d8c8 ed3c 0df0 1abc d5f0 aabc 5bad 163d
00000080: 79eb e83c 727a e8bc 6dbe 273c ddc5 0ebc
00000090: 32ee 34bd 0a9b 873c 790e 7ab9 0021 8ebc
000000a0: 116d ba3a ca62 c9bc c570 40bc 25ab 53bc
000000b0: 1c11 663c 7f5d bb3c 6196 263d e29a 00bd
000000c0: d557 393b 0417 3b3c 7eaa 06bc 9ac4 bf3c
000000d0: da2f 0a3c 21aa fdbc dd50 34bc 40a5 d03c
000000e0: 7f15 2abc dae6 6e3c 98f7 893b 868d 593c
000000f0: 9be2 29bd ce05 883c 24a8 c4bc 567a 163d
00000100: d816 1abb 6266 12bd 2090 363d 4ac9 4e3b
00000110: 060b 953c 503f 023d d407 4dbc 0ba4 7e3c
00000120: 1046 d9bc 7f27 953c 7271 04bd a271 713b
00000130: 40d9 27bd 126d ff3c 2af6 00bd dcea 143d
00000140: 8b4a 59bc 147a ed3c 7513 23bd ea90 5d3c
00000150: bda0 4d3c 52c2 273d 8f5d f03c a018 063d
00000160: fea8 a8bb bb8c 043c 50dc 0d3d 4f86 27bd
00000170: 20f2 b0bc 299a 063c 4c73 b63c fb8a 863c
00000180: 6eaf 023d 8c4c a73c 04a1 54bc a243 c53c
00000190: d49a f5bc b8cc 12bd b747 073c 2599 1fbd
000001a0: b0d0 0b3d 8a54 dd3c 4bc7 173c cb6a 493c
000001b0: ae7a 953b 027e 3dbd aac2 3ebd 5680 b0ba
000001c0: a361 51bd be85 6b3c 8c85 8bbc b91e 303c
000001d0: 8903 c83c 1dde ce3c cd2a 61bd 89f1 8fbc
000001e0: c3a0 953c 7383 68bd fbf5 4c3b e960 b9bb
000001f0: 55d5 08bd 476c 35bd 26d4 e03c 0773 cc3a
00000200: da35 213d 10ce 18bd 5f60 913a 11d4 1b3d
00000210: b096 cdbc ba9c ddbb 428c 29bd 50bd 24bd
00000220: 63ef 1e3d 848a 2b3a 04ec 26bd 62f6 bbbc
00000230: 1a31 ddbc 6d6b 3ebc 5963 08bd c177 8ebc
00000240: a4ef c73c 100a ea3c 786b 433c 467c 533c
00000250: ae59 03bd b51f f13c 838e 463d 0311 1b3d
00000260: 1ac6 8c3b 4706 20bb 33b9 05bc 033d ec3c
00000270: 2b9e 5e3c 0d0f 08bd 8d7d 1a3d 651e a4bc
00000280: ed12 8a3c 362c 2f3d c97e 273d 7464 873c
00000290: 165e 83bc 70f7 833b c1ad 5cbc df88 cf3c
000002a0: 4804 bebc 86b5 0bbd f463 9e3c 24ca 603c
000002b0: 31fa d03c 3822 d4bc 722d 74bc 0ca1 dd3c
000002c0: 0d48 73bb f460 893c 29a9 f8bc 9475 e5bc
000002d0: 2615 0abc c633 80bc a772 193c 326e ce3c
000002e0: 8c9b b13c ea7c b83c 75cb 713c 13dd b33c
000002f0: f030 86bc fc90 b43c 0156 19bd 5858 313d
00000300: 3cea f53c 13f6 9d3c 59ec 05bd 0fbd 1c3d
00000310: aa78 ccbc fbb7 1d3d 4096 5a3d 19cb e83b
00000320: e7bb 573d 256d c73a e40e 543d 7b73 8b3b
00000330: c718 4c3b 604e 94bc 64ff 153d 90fc 4e3c
00000340: f396 463b 28c3 933c 236f 9d3c c100 d1bc
00000350: f35d bd3c b55e 41bc 40eb 053d 7a7f 1f3d
00000360: 5214 543a eda4 8cbc dcc2 efba 3f1d 2dbd
00000370: 9e69 9fbc 1a87 2abd f2fc 0dbd 9780 c9bc
00000380: 66e1 cc3c 0faa 07bd da61 16bd 80aa 17bd
00000390: f907 233c 0ddf 583c 3575 633c b4ff df3c
000003a0: 7f2d 77bc 67b4 00bd 59fe ebbc 4e5e 653c
000003b0: 0e3e 7fbc 2748 113d b926 263d 4075 47bc
000003c0: 3b73 8c3c 1cd6 243d f9d7 17bd d39a 20bd
000003d0: 40b9 00bb 0026 f5bb 0b38 8c3b 6b5c c13c
000003e0: 10ab 953c b85b d7bc 6671 12bd eea6 873c
000003f0: 00aa 2fbc 0b06 493c fd71 fb3c 9833 3c3c
0.036570538 -0.029582405 -0.0049996222 -0.02121987 0.040845457 -0.025847105 -0.004424265 -0.034474246
-0.0131135145 -0.018115623 -0.010028306 -0.03091107 0.014332524 -0.005389009 0.021449905 -0.007687604
-0.032612614 -0.033873804 -0.01604544 0.0069381827 0.003521011 -0.010952038 0.010429602 0.006293868
-0.009173861 -0.0035651692 0.02225957 -0.027237382 0.029026434 -0.009456647 -0.02086679 0.03678642
0.028432595 -0.028378699 0.010238272 -0.0087141665 -0.044172473 0.01655342 -0.0002384725 -0.01734972
0.0014223178 -0.02458324 -0.011745636 -0.012919222 0.014042165 0.02287173 0.040670756 -0.031397708
0.0028281112 0.011419062 -0.008219359 0.023409177 0.00843426 -0.030964913 -0.011005607 0.025469422
-0.010381102 0.0145814065 0.0042104237 0.013278371 -0.041475873 0.01660433 -0.024005957 0.036737762
-0.002351215 -0.03574217 0.044571042 0.0031553083 0.018193733 0.03179866 -0.012514073 0.015542041
-0.026522666 0.01820731 -0.032334752 0.0036841412 -0.04097867 0.031179938 -0.03148476 0.03635679
-0.013262401 0.028988875 -0.039813478 0.01352332 0.01255053 0.040956803 0.029341487 0.032738328
-0.0051470986 0.008090193 0.034633934 -0.04089957 -0.02159983 0.008215466 0.022271775 0.016423693
0.031905584 0.020422243 -0.012977842 0.024080101 -0.029981054 -0.035839766 0.008256844 -0.03896441
0.034134567 0.02701785 0.009263824 0.012293528 0.0045617437 -0.04626275 -0.046572365 -0.0013465981
-0.051118504 0.014375148 -0.017031454 0.010749512 0.024415748 0.025252396 -0.05497246 -0.017571228
0.018265134 -0.056765985 0.0031274545 -0.0056573045 -0.033406574 -0.044292714 0.02744491 0.0015598246
0.039357997 -0.03730589 0.0011091343 0.03804404 -0.025096267 -0.006763068 -0.041393526 -0.040219605
0.038802516 0.0006543773 -0.040752426 -0.022944633 -0.027000953 -0.011622292 -0.03329787 -0.017391087
0.024406262 0.028569251 0.011927478 0.012908047 -0.032067947 0.029434064 0.048475754 0.03785802
0.0042960765 -0.0024417804 -0.008161831 0.028837686 0.013587515 -0.03321748 0.03771739 -0.020034024
0.016854728 0.042766772 0.040892396 0.016527392 -0.016036075 0.0040272996 -0.013469161 0.02533382
-0.0231954 -0.03410866 0.01933477 0.013720069 0.025509926 -0.025895223 -0.014903413 0.027054332
-0.0037121803 0.016769864 -0.0303541 -0.028010167 -0.008427894 -0.015649687 0.009365714 0.02519903
0.021680616 0.022520501 0.014757981 0.021956002 -0.016380757 0.02204179 -0.037435535 0.04329714
0.030018918 0.019282376 -0.0326961 0.038266238 -0.02495988 0.038505536 0.053365946 0.0071042893
0.052669432 0.0015215023 0.051772013 0.0042557097 0.0031142698 -0.018103778 0.036620513 0.012633458
0.0030302375 0.018037394 0.019218033 -0.025513055 0.023116088 -0.011802365 0.032695055 0.03893993
0.0008090186 -0.017168486 -0.0018292326 -0.04226422 -0.019459542 -0.04163275 -0.034665056 -0.02459745
0.025009822 -0.033121165 -0.036714412 -0.037027836 0.009950631 0.013236773 0.013882925 0.027343608
-0.015086531 -0.031422045 -0.028807806 0.013999535 -0.01557876 0.0354692 0.040564273 -0.012173951
0.01714479 0.040243253 -0.037071202 -0.039210152 -0.0019641668 -0.0074813366 0.004279142 0.023603639
0.018270046 -0.026288852 -0.035752676 0.01655909 -0.0107216835 0.012269507 0.030694002 0.01148691

bias f4 [96]
00000000: 1ddc 08bd 5164 693c 696a 363c 1f82 8c3c
00000010: 9a01 dfbc 36d1 163d 4287 f63c 6492 70bc
00000020: e67b d23a 9e71 013d d448 57bb db4d 46bb
00000030: 32ec 5fbc 2671 243d 3646 09bd e92f 9bbc
00000040: 1bbe 9f3b 8746 d2bb 41db 003d 2233 71bc
00000050: 9db5 babc e13d 123d 706b a0bc 7ccf 65bc
00000060: 76bd 1abc d4e9 07bc a7be d23c 415d 0cbd
00000070: 5fc4 edbc 0211 a2bc 352b 53bb 200e 7fbc
00000080: 0706 f8bc 00fe b03a 26ca a93c 5af4 a63c
00000090: be9d 053c 10f2 0c3c 88ad ed3c 03e0 04bd
000000a0: cd33 fbbc 72a7 43bc 7e19 1cbd b6cc 1fbd
000000b0: 6646 613c b7d6 143d 559b 34b9 7929 25bd
000000c0: 39e6 b73c b29a ffbc c6ba 383d 5115 843c
000000d0: 7a6c 88bb 5e28 f3bb d2c1 15bd 4a0a e2bc
000000e0: 8a01 c4ba 1ac9 d43c bbfb e4bc 75b1 183c
000000f0: 291e 513c f234 b63c 90bb 42bc 0291 2e3d
00000100: 1158 39bc a674 1f3d 9dca 1fbd 0b59 de3c
00000110: 958c 383b a189 523c 055c bcbc 0628 cdbc
00000120: 3f1b 73bc 4a92 19bd e28b a8bc ac66 333c
00000130: 1f03 e8bc 5e21 1dbd 0c62 1bbd 45a2 3dbb
00000140: fae0 fd3a 4f5b 67bc 522f 19bd 2024 6a3c
00000150: cd96 303d fefc a6bc cc9e b5bb 6d56 153d
00000160: 4645 56bc 50dc a93c 91b2 81bc b300 8b3c
00000170: 6413 38bc 8d36 f2bb 1867 313c 04ed 9abc
-0.03341304 0.014245109 0.011133769 0.01715189 -0.027222443 0.036820613 0.030093793 -0.01468334
0.0016058653 0.031602494 -0.0032849805 -0.0030258808 -0.013667153 0.04014697 -0.033514224 -0.018943744
0.0048749573 -0.006417099 0.031459097 -0.014721664 -0.022791678 0.035703544 -0.01958248 -0.014026519
-0.009444585 -0.008295495 0.025725676 -0.03426862 -0.029024301 -0.0197835 -0.0032221798 -0.0155673325
-0.030276312 0.0013503432 0.020726275 0.020380188 0.008155284 0.008602634 0.02901341 -0.032440197
-0.030664349 -0.011941778 -0.03811025 -0.039013587 0.013749694 0.03633758 -0.00017224003 -0.040322755
0.022448646 -0.031201694 0.045099996 0.016123446 -0.004163322 -0.0074205836 -0.036561795 -0.027592797
-0.0014954072 0.025974799 -0.027952066 0.009319653 0.012763538 0.022242043 -0.011885539 0.04261876
-0.011312501 0.038929604 -0.039011586 0.027142068 0.0028159965 0.012850196 -0.022993097 -0.025043499
-0.014838039 -0.037493028 -0.020574514 0.010949772 -0.0283218 -0.0383619 -0.0379353 -0.0028935832
0.0019369416 -0.014120891 -0.037398644 0.014290839 0.043112565 -0.020384308 -0.0055426117 0.036459375
-0.0130780395 0.020734936 -0.015832217 0.016968107 -0.011235092 -0.007391757 0.010827802 -0.018911846

weight f4 [128, 96, 3, 3]
00000000: bc26 773c 0d25 a5bc 5d28 f8bc 6ec7 3dbc
00000010: 975f 23bb 55ef cb3c d941 903b 8820 8c3c
00000020: 2580 0bbb ea6c a23c 273c 1d3b e416 e0bc
00000030: 0dc7 10bb f970 fb3b f176 ffba 4c04 de3b
00000040: d6c4 bebc 179d 443c a2f6 aabc 8e10 4bbc
00000050: 7dba 04bd 3d90 8bbc d985 adbc 93a0 01bd
00000060: 0d19 e4bc b288 c2bc 27a0 f1bc 0bb6 fb3b
00000070: 8a0d a43c 0c60 b53c 7beb 8a3c dd0d a63c
00000080: 213a 86bc 14c4 363c 4012 303c 0fb7 e5ba
00000090: 7ded c53c 228a 31bd 5046 8b3b 34fc e9bc
000000a0: 8d45 b9bc 3f61 87bc ee7a fcbc f536 1f3b
000000b0: 1b40 1a3c 4a80 923c c7f1 e3bc 5a6f 75bb
000000c0: d32d d23c 7eb3 14bc 524f d0bc 759a 0b3c
000000d0: 47e1 8d3c 1ba0 be3b 2409 633c fe92 18bc
000000e0: c393 cd3c b906 d63a 9899 073d 3fd1 0c3c
000000f0: c5d9 fe3a f760 023d 8768 e43a b94f fdbc
00000100: 0411 83bc c69d f7bc e0aa 643b 5b8f a8bc
00000110: 1f6b 80bc d3ad 833b 240b a63a d234 ddbc
00000120: bfbb a5bc c04d d73c 5734 4ebc 8012 15bc
00000130: cad7 0b3d 8613 083b 7997 8b3c f40f 5f3c
00000140: 37a2 d1bb 6386 48bc c2f8 6d3c 2ebe bfbc
00000150: 0a6b b2bc 2fc7 e4bc ec2b b13c c58f b43a
00000160: b5b7 b9bc e2f5 aebc 508f b2bc a8c6 0a3d
00000170: 3b20 fabc 4d7f 9abc 5a19 f6bc a725 58bb
00000180: bce0 9e3c 5b54 a73c df23 32bc 643c f3bc
00000190: 7717 8cbc 7e88 bb3b 4cbd cf3c 2a8c d3bc
000001a0: 4e08 f83b 9072 21bc bb41 a3bc 1958 ad3c
000001b0: 1164 693c c746 af3c d4a7 2a3c c6af c4bc
000001c0: cc8b 43bc d4d7 243c 3733 efbc ffdc c53b
000001d0: a3a0 5ebb bf0a 9a3c 744d 9239 1eea 073d
000001e0: 195c 113d 7d1a acbc 6633 dcbb 49ed ab3c
000001f0: 7530 7a3b a45c 643c f706 f8bb 6a77 d43b
00000200: a3ff e53c 0123 dabc 9f0d c8bc 79c8 e53c
00000210: ac0d 8c3c e687 613c 0667 f6bc 92a7 a03c
00000220: a6af a4bb 8cf8 27bc f314 5cbc c2e2 74ba
00000230: d6fd eabc 58d6 a538 9a59 ac3c 1306 e5bc
00000240: e658 9a3c 0e16 be3b 4c3c 223c 6954 f2bc
00000250: 24ae ce3c 7bc5 56bc bdb2 993b 8b05 ddba
00000260: 9c75 fabc 8772 f13b 1a5c 51bc bccb cd3c
00000270: 65dd e63c b5ac ec3c df0b 893c b495 dabc
00000280: 902c fe3c d2a0 773c 22a4 ea3c a1ea 83bc
00000290: dcf2 06bc 5788 c9bc 9541 d73c 2429 fa3c
000002a0: 93d9 643c 9a35 c83a fb57 d0bc bd93 e9bb
000002b0: d0f8 993b 2b26 053d 4b35 c9bc 8535 8bbc
000002c0: 521a a2bc 52a0 ce3c 8214 e9bc 9770 8f3c
000002d0: 3316 c3bb 637f 0dbb 9ebb 84bb d86e 29bc
000002e0: 2ded ca3c 58a1 adbc cdd5 343b 01f9 0b3c
000002f0: 4538 7e39 6159 62bb c0b6 7abc 893d 15bc
00000300: cc00 f03c 73b6 d0bc 5317 24bc 8a42 b0bc
00000310: a3ad b63c 79cf 5cbc 3910 20b8 406b e53c
00000320: 29b3 86ba 6077 44bc 9adf 413c b8a1 85bc
00000330: 46d0 17bc 407f e03c b161 44bb ed77 613c
00000340: 48bc d2bc 8450 d9bb a137 cf3c fcba c13c
00000350: 6639 21bd e150 073d 4613 07bd 69fb f1bc
00000360: e499 d53b ce0c a5bc 3644 f33c 3264 a93a
00000370: cbc3 4cbc b420 5f3c 83e2 94bb 88e7 22bb
00000380: 3e62 c2bc e64f 8bbc 5493 103d d588 ae3c
00000390: 9613 afbb 6235 4abb 3ef9 843a ec73 893c
000003a0: 9599 123d 4445 f93c 2fc6 d43b bccb 9abc
000003b0: b0a7 3f3c 4858 37bb d24e f03c e7ac 9b3c
000003c0: 6db2 10bc 9e4e 043d fd22 643b f06f b63c
000003d0: 3dd0 923c aa92 2bbc d8c6 e4bc e706 06bd
000003e0: 02d2 87bb d6da d2bb 1a95 b7bc ab99 6b3c
000003f0: 5baa c73c dc20 15bc 1de8 6dbc 0644 b7bc
0.015084919 -0.020159269 -0.030292684 -0.011583192 -0.0024928802 0.024894396 0.004402381 0.017105356
-0.0021286097 0.019827325 0.0023992152 -0.027354665 -0.00220913 0.0076733795 -0.0019490403 0.0067754146
-0.023287218 0.012000344 -0.020869557 -0.012394084 -0.03240441 -0.017036552 -0.021181988 -0.031647276
-0.027843976 -0.023746822 -0.029495312 0.0076816133 0.020025987 0.022140525 0.016957989 0.020270282
-0.01638514 0.011155147 0.010746539 -0.0017525869 0.024161095 -0.043344624 0.0042503253 -0.028562643
-0.022616172 -0.016525863 -0.030820336 0.0024294232 0.009414698 0.017883439 -0.02782525 -0.0037450404
0.025656616 -0.009075997 -0.025428448 0.008520712 0.017319335 0.005817426 0.01385716 -0.009312389
0.025094872 0.0016328908 0.033105463 0.00859481 0.0019443562 0.031830754 0.0017426171 -0.030921804
-0.015999325 -0.0302266 0.0034891888 -0.02057617 -0.01567608 0.004018524 0.0012668115 -0.027002726
-0.020231126 0.026282191 -0.012585721 -0.009098649 0.03414134 0.002076359 0.017040001 0.013614643
-0.0063975113 -0.012239072 0.0145246405 -0.023406114 -0.021779556 -0.02792701 0.021627389 0.0013775757
-0.022670606 -0.02135748 -0.021796852 0.03388086 -0.030532947 -0.01885953 -0.030041385 -0.0032981427
0.019394271 0.020425966 -0.01087281 -0.029691882 -0.017101033 0.0057230582 0.025358818 -0.025823671
0.0075693494 -0.009853974 -0.019928804 0.021160172 0.014245049 0.021396054 0.01041599 -0.024009597
-0.011935186 0.010061223 -0.029199226 0.0060383077 -0.0033970259 0.018803952 0.00027904997 0.033182256
0.03548822 -0.021008724 -0.0067199944 0.02098717 0.0038175855 0.013938103 -0.0075691896 0.006483962
0.028075999 -0.02662802 -0.024420558 0.028049694 0.017096363 0.013765311 -0.030078422 0.019611154
-0.0050258217 -0.010252129 -0.013432729 -0.0009341651 -0.028685492 7.907738e-05 0.02103882 -0.027956998
0.018841218 0.005800969 0.009902071 -0.029581266 0.025229521 -0.013108606 0.0046904967 -0.0016862614
-0.030573659 0.007368389 -0.012778306 0.025121562 0.028181741 0.028890947 0.016729293 -0.026682712
0.031027108 0.015114026 0.028642718 -0.01610309 -0.008236613 -0.024601145 0.02627639 0.030537196
0.013967889 0.0015274764 -0.025432577 -0.0071282075 0.00469885 0.032507103 -0.024561545 -0.016993294
-0.019787941 0.025222931 -0.028452162 0.017509742 -0.005953574 -0.002159082 -0.004050686 -0.010341369
0.024771297 -0.021195099 0.0027593256 0.008543254 0.0002424429 -0.0034538137 -0.01530236 -0.009108909
0.029297255 -0.025477624 -0.010015327 -0.021516103 0.022299593 -0.0134772 -3.816208e-05 0.028005242
-0.0010276783 -0.011991352 0.011833096 -0.016312465 -0.009265965 0.027404428 -0.0029965455 0.013761503
-0.025724545 -0.0066319127 0.02529508 0.023648731 -0.03936138 0.033036117 -0.032977365 -0.029538827
0.0065185893 -0.020147707 0.029695611 0.0012923537 -0.012497853 0.013618637 -0.004543604 -0.0024857242
-0.023728486 -0.017005872 0.035296753 0.021305481 -0.005342911 -0.0030854573 0.0010145081 0.016778909
0.035791 0.030428536 0.006493352 -0.018895976 0.011697695 -0.0027976204 0.02933446 0.019003345
-0.0088316025 0.032301538 0.0034810894 0.022270173 0.017921561 -0.010471979 -0.027926847 -0.032721426
-0.004144908 -0.0064347787 -0.022409964 0.014379899 0.024373224 -0.009102073 -0.014520672 -0.022371303

bias f4 [128]
00000000: f588 993b 796d fbba df4c 363c e5e6 d53c
00000010: 0295 163c e16c 49bb 5203 c63c 4ddb aa3c
00000020: 215c 84b8 5d14 9d3c fae7 bebc 6803 123c
00000030: 324d c0bc 6107 79bb 57c0 b53b 4c88 b4bc
00000040: f55e 9c3c 6b86 0abd 109c 7f3c c2bf d2bc
00000050: d319 cc3c c91e 38bc 6ea0 b23c 3bb7 6cbc
00000060: c5c9 7ebc 1010 03bd 0ad5 cebc 135f 7abc
00000070: 5a20 4fbc c968 02bb b892 4bbb 3bc3 d03b
00000080: 5377 073d 93d6 e8bc 5dd8 dc3c cabb 903c
00000090: e0b5 403c dd33 d9bc 9f39 473c 74cb 5dbc
000000a0: 2dfa 243b 2907 23bb 320f 653c 1fce 4a3a
000000b0: 3080 9dbb fb8c 0b3d cc5b 02bd c291 923c
000000c0: 7b17 eabc f740 d3bc 14cd 333c 6739 4638
000000d0: 25d0 0e3c 9ec9 5cbc fd80 ccbc 38f6 d93c
000000e0: 2b05 06bd d8dd 103d 085e 19bc 4085 983c
000000f0: a384 d1bc 90eb 893c ae57 f13c d5d1 f1bc
00000100: 5b2a b439 aaff 683b fec6 9eba 6ecd 16bd
00000110: 63c3 44bc 6dab 2dbc 3830 1fbb 804e d8bb
00000120: 1013 e83c 8c5a bfbc 8310 d4bc 367e fabc
00000130: 5608 89bb f0ad 673c a05e 8dbc a73a 30bc
00000140: a298 f1bb c40d 493c e0b9 093c 9a3e c4bc
00000150: 23f0 0d3c e734 8bbc b94e 9e3c 7031 723c
00000160: d6b9 933c 9835 06bc b5b1 bebc 204b 08bc
00000170: d893 d9bc 2c0e 053d 0bc2 f0bb 185d 933b
00000180: 56c1 4d3a b5fe 97bc c0db 773c 00cf 423c
00000190: 7d01 d03c 5a9b 333c 1ada edbc 12d0 03bc
000001a0: ec23 f6bc 2b08 713c d1a3 cbbb 5486 b1bc
000001b0: af7a f13c 3970 afbc 1fcd 0c3a 588e 2e3c
000001c0: ecff e1bc e9d2 8e3c 7bf9 3bbc d79b b4bc
000001d0: a18c 053d c3a2 cebb 5874 f13c 840e a43b
000001e0: f14d 023d cfd7 a2bc 380c 9b3c 154c f4bc
000001f0: 5fb0 443c cf62 1cbc 1739 963c 1467 08bd
0.004685516 -0.0019182406 0.011126726 0.026111076 0.0091908 -0.0030735063 0.024171505 0.020856524
-6.311411e-05 0.019174749 -0.023303974 0.008911945 -0.02347431 -0.0037998783 0.0055466103 -0.022037648
0.019088248 -0.033819597 0.015601173 -0.025726203 0.024914658 -0.0112378085 0.021805014 -0.014447982
-0.015551035 -0.03199774 -0.02524807 -0.0152814565 -0.012641991 -0.0019898883 -0.0031062793 0.0063709295
0.03307278 -0.02842263 0.026958639 0.01766767 0.011762112 -0.026513988 0.012159734 -0.013537277
0.002517353 -0.0024876094 0.013980674 0.0007736403 -0.004806541 0.034069996 -0.031825826 0.017891768
-0.02857565 -0.025787814 0.010974187 4.726034e-05 0.008716618 -0.013475804 -0.02496385 0.026606664
-0.032719772 0.035367817 -0.009360798 0.018618226 -0.025575941 0.016835958 0.029460754 -0.029519001
0.00034363833 0.0035552778 -0.0012113748 -0.036817007 -0.012009474 -0.010599953 -0.0024290215 -0.006601155
0.028329402 -0.023358606 -0.02588678 -0.03057776 -0.004181902 0.014140591 -0.017257035 -0.010756171
-0.0073729316 0.012271348 0.008406132 -0.023955632 0.00866321 -0.016993 0.019324647 0.014782295
0.01803295 -0.008191489 -0.023278097 -0.008318692 -0.026559755 0.03248422 -0.0073473505 0.0044971816
0.00078489387 -0.018554071 0.015128076 0.011890173 0.025391335 0.010962332 -0.029034663 -0.008045213
-0.030046426 0.01471142 -0.006214597 -0.021670498 0.029477445 -0.021415817 0.00053711416 0.010654055
-0.027587853 0.017434554 -0.011473055 -0.022046966 0.032604817 -0.006306024 0.029474422 0.005006613
0.031812612 -0.019878296 0.018926725 -0.029821435 0.012004941 -0.009545042 0.01833777 -0.033301428

weight f4 [20, 128, 3, 3]
00000000: 0902 b23c 9a45 863c d9cc 9e3c 85fd b43c
00000010: 4313 2dbc ddd3 bebc 9c9d 803c 5f5b 24bc
00000020: 304a d43c 7a09 943c 22fe 0b3c f05e 34bc
00000030: 1a61 8ebc 5a2e 3b3c 7d38 bc3b 8e94 ee3b
00000040: c2e4 9dbb 69f2 913c 9600 6b3b 317e 41bc
00000050: f613 f7bc 764d 8dba ae1a f8bb e7a4 8a3a
00000060: 57fb bfbb 9058 90bc 8fed 43bb c120 3e3b
00000070: ef56 3d3b 8447 d53b 07d2 89bc ba1e d5bc
00000080: ed6c cebc 7a05 d93c 5f83 41bb 69ba 18bb
00000090: 13f6 ca3c 3b40 94bc 654b 303c 943b 9f3c
000000a0: 44df 8fbc 4dc1 b9bc d3fa ed3c e569 babc
000000b0: 6eb5 793c abef 7bbc 0488 113b cd07 d83b
000000c0: c86e aebc e36e 1b3b 9279 453c fcc1 dbbc
000000d0: bbc4 8e3b f7c0 91ba c8bb a73c 975b d7bc
000000e0: e348 533c 99c5 a2bc 80f1 49bc b430 99ba
000000f0: a5f6 783c 2304 cc3c 9f87 213c 5316 c23c
00000100: 8522 9abc 9d2c 963c dc0b 57bb 8440 9cbc
00000110: 73d0 a93c a40a 003a bc92 c7bb 9bcf 2cbb
00000120: 8470 9ebc 7833 a6bc 6179 e43c 924e 3fbc
00000130: 5a0f abbc 6152 11bc cca7 be3c 1b9a cdbc
00000140: 1dea d13b 9d9a 39bc 1e5b 2b3c 4d2d 90bc
00000150: 0f9a 65bc ceb1 253c dad3 433c 21fb e03c
00000160: 7f33 963b 99eb e2bc a9cf 013c 2986 c93c
00000170: ef99 b3bc 2f21 9dba 26d3 f3bc 5d90 353c
00000180: 6961 dbbc 5529 ac3c 6618 f1bc 1129 883a
00000190: 138d a9bc 43e1 3e3c 2baa 4dbc 4997 1cbc
000001a0: 2d76 983c bf16 a8bb e44e 763b ee32 c0bc
000001b0: 8dc6 c0bc 198e f0bc a360 103b c4ad 993c
000001c0: 3552 b3ba 01b5 c5ba f723 94bb 044e 80bc
000001d0: 629b 5cbb 4bed 113c 3ad2 21bb bdbf e9bb
000001e0: 787f 12bc 868c 6fbc c9e3 c23b 8bf8 403c
000001f0: fdfd d93c bca2 bd3c b2eb 62bc 6e29 30bc
00000200: fe42 4e3c f7c8 e1bc d811 1f3c 0561 bfbc
00000210: 22cd 123c fe73 cf3c c9b5 a6bc cfb4 eb3b
00000220: 015a 713c 6684 ef3c 962a e43c 42ab eaba
00000230: 5d39 5b3b 08c0 b5bc d7c1 e83c 8b12 d93c
00000240: 28f2 96bc 8531 9b3c f9e4 173c 6402 00bc
00000250: 2c37 d0bc 1d83 d43c bded 1a3b 74b6 b03a
00000260: 2d68 ce3c 1574 503c e032 69bc d15b f23b
00000270: af2f 2d3c 15e0 ab3c 3785 12bc e41b 943b
00000280: 3b56 32bb 9d0f cc3c a384 6abc d74c b039
00000290: 3141 b43c 0ef5 493c e19b 5cbc 2bfa e0bc
000002a0: 8484 77bc 40d3 c4ba a1c9 a0bb b09b 293c
000002b0: 45f4 96bc ab08 afbc f8c2 99bc 6b8a 3dbc
000002c0: c040 8cbc f13e abbb 98a9 c23c c0cf abbc
000002d0: b2d3 8dbc 22ff e23c ed2b 48bc 7ef8 c4ba
000002e0: b9ca debb f92d 3bbc e2ed 9a3b 0e02 e53c
000002f0: 91ac 7c3c e889 b0ba a761 4ebc 55c4 d5bc
00000300: 203b 9c3c 4598 99bb 63f3 36bc 38b3 8a3b
00000310: 6b2a beb9 b772 c33c d855 a8bc 3336 f4bb
00000320: 06b7 a1bc 3b55 ea3c 48ed c03c 1b1b 883a
00000330: a98a 47bc 467a eebc 8e57 913c f81b 813b
00000340: 535d 9c3c b3ae 51bc dd6c 8dbc b272 b53b
00000350: ea4c d13c c188 bdbc c68c aebc 034f 813c
00000360: 6f93 4a3c 1dd6 413c 4822 1b3c 3021 b7bc
00000370: 00d3 773c 1a41 c13c 01da 17bc 2fdf 6dbc
00000380: 35e1 693b 014a dbbb 3954 9cbb a758 83bb
00000390: 7578 c9bb 3c14 67bc c631 b9bc ab42 09bc
000003a0: e3a0 143b 6671 b3bc 9ffa 64bb e219 35bc
000003b0: aabb da3a 796b 15bc e29f 9e3c 659c 743b
000003c0: 73dd 8e3a f78a 603c 71e4 3c3a b732 823c
000003d0: e487 7abc 7549 61bc d9c8 27bc c660 14bc
000003e0: 7dc9 383c 3fa6 6dbc 6e8b e4bb fae0 983c
000003f0: d4e5 babc 65a9 f0bb ad84 a23c bef8 60bc
0.021729486 0.01639061 0.019384788 0.022093544 -0.010563674 -0.023294384 0.015700154 -0.01003155
0.025914282 0.018070925 0.008544477 -0.011008963 -0.017380286 0.011424625 0.0057440386 0.0072808927
-0.00481853 0.017815785 0.0035858504 -0.0118098715 -0.030160885 -0.0010780531 -0.00757154 0.0010577709
-0.0058588195 -0.017620355 -0.0029896235 0.0029011222 0.0028890928 0.0065087695 -0.016823782 -0.026015628
-0.025198424 0.02649187 -0.0029527766 -0.0023304468 0.02477554 -0.018097034 0.010760163 0.019437589
-0.017562516 -0.02267518 0.029050266 -0.022755573 0.01524101 -0.0153769655 0.0022206316 0.006592727
-0.021293059 0.0023717217 0.01205291 -0.026825897 0.004356948 -0.001112013 0.020475283 -0.02628879
0.0128957955 -0.019869613 -0.0123256445 -0.0011687488 0.015195523 0.024904316 0.009858995 0.023692286
-0.018815288 0.01833182 -0.0032813465 -0.019073732 0.02072928 0.0004884398 -0.00609049 -0.002636886
-0.019340761 -0.020288214 0.02788991 -0.0116764475 -0.020881344 -0.008869738 0.023273371 -0.025097897
0.0064060823 -0.011328367 0.010458736 -0.017599726 -0.014013781 0.010113193 0.011952365 0.027463498
0.0045837755 -0.027700232 0.007923045 0.024600105 -0.021923987 -0.0011988039 -0.02976377 0.011081782
-0.026779847 0.021015802 -0.02943058 0.0010388215 -0.020697152 0.011650386 -0.012552778 -0.009557554
0.018611038 -0.0051296647 0.0037583644 -0.023461785 -0.023532176 -0.029364632 0.0022030256 0.018759616
-0.0013681116 -0.0015083851 -0.004520889 -0.0156622 -0.0033661951 0.008906673 -0.0024691955 -0.0071334527
-0.008941524 -0.014620906 0.0059475643 0.011778007 0.026610369 0.023148887 -0.013850139 -0.010752065
0.012589214 -0.027561648 0.009708844 -0.023361692 0.00896004 0.025323864 -0.020350354 0.007193185
0.014730931 0.029237937 0.027852338 -0.0017903822 0.003345094 -0.022186294 0.028412743 0.0264981
-0.018426016 0.018944511 0.0092709 -0.00781307 -0.025416933 0.025941426 0.0023640238 0.001348211
0.02519616 0.012722989 -0.014233321 0.0073961993 0.010570451 0.020980874 -0.008942894 0.0045199264
-0.0027212042 0.024909789 -0.01431385 0.00033626586 0.022003742 0.012326492 -0.013464899 -0.02746304
-0.015107278 -0.0015016571 -0.0049068485 0.01035206 -0.018427024 -0.021366438 -0.018769726 -0.011568646
-0.017120719 -0.005226009 0.02376251 -0.020973086 -0.017312858 0.027709547 -0.012217504 -0.001502767
-0.006799069 -0.011424535 0.004728065 0.027955081 0.015422002 -0.0013468834 -0.012596524 -0.026094595
0.019071162 -0.0046873414 -0.011166426 0.0042327903 -0.00036271228 0.023858411 -0.020548746 -0.00745275
-0.019740593 0.028605094 0.023550645 0.0010384055 -0.012179055 -0.029111039 0.017741945 0.0039401017
0.01908747 -0.012797999 -0.017263824 0.0055373544 0.02554937 -0.023136498 -0.02130736 0.015784746
0.0123642525 0.011830834 0.0094686225 -0.022354692 0.01512599 0.023590613 -0.009268285 -0.014518543
0.0035687212 -0.0066921716 -0.0047707823 -0.004008371 -0.006148393 -0.014103945 -0.022606742 -0.008377711
0.0022678904 -0.021904659 -0.003493942 -0.011053534 0.0016688008 -0.009119862 0.019363347 0.0037324664
0.0010899737 0.013705007 0.0007205671 0.015893323 -0.015291188 -0.013750424 -0.010240757 -0.009056276
0.011278507 -0.014504968 -0.006974629 0.018661965 -0.022814669 -0.007344412 0.019838655 -0.01373118

bias f4 [20]
00000000: b2da 6abc 0888 cebc 5a85 bfbc c8c2 023c
00000010: b2e7 f3bb 8078 1e3d e2a9 8ebc 5a5f 9a3c
00000020: 61cb 673c c542 36bc ed3f 64bb 590f bd3c
00000030: 956a a7bc da0e 3e3c a4ca 59bc 3a67 b0bc
00000040: 4b0e 2dbb f425 e8bc 63ef 6ebc 0cd7 0bbb
-0.014334368 -0.02521135 -0.023379017 0.00798101 -0.0074433917 0.038689137 -0.01741499 0.018844295
0.01414761 -0.0111243175 -0.0034828142 0.023078607 -0.020436564 0.011600221 -0.013292942 -0.021533597
-0.0026406224 -0.02833841 -0.014583441 -0.0021337895

weight f4 [20, 20, 3, 3]
00000000: bcfd 843d 6895 8ebd b7ad 873d 8e59 133d
00000010: bbf0 89bb 0923 973d 1cf9 14bd cd6c 1c3d
00000020: 8ba8 2cbd 71b7 5f3d 1269 1a3d f923 fdbc
00000030: f416 5c3c 6f86 923c 2f88 3a3d 3acb 49bd
00000040: 08d5 f8bb 2f8f a2bc 13bb 45bd 82a8 e53c
00000050: 4c54 4fbd a119 12bd fd01 483d 886e a0bb
00000060: 030d 85bd faf4 2fbd 9388 f63a 589b 3cbc
00000070: 3a0d 20bc a465 8bbd 9608 7cbd f24d d4bb
00000080: 6fdc 52bc 7dfa 46bd 6af5 16bd 1371 1abc
00000090: 6c3b 443d 8fca 733d e0e1 933d 4116 b0bc
000000a0: 08cc 96bd e539 31bc 43a7 573d 8b2a c23c
000000b0: 2112 5abd 930c 573d d5c7 383c 027a bc3c
000000c0: 4772 77bd 282f 3dbd ef03 883d c575 513c
000000d0: 9c34 26bd 1dc9 b6bc b5f4 803d 6a22 6d3b
000000e0: 96a9 27bd aeee 2bbd 02ef 1e3d 60aa 6dbd
000000f0: 2176 89bd e4e5 76bc 1306 6ebd e609 983d
00000100: ffe8 913c 3120 a33c 59aa afbc 465e 25bd
00000110: f603 c6bc c48f 24bd ff7a 60bd 1406 8abd
00000120: 5a76 7dbd 517c 22bd e1b0 4fbd fccb 72bb
00000130: b597 b53b 2bdd 2e3d 8b47 403d 80f5 893c
00000140: 17be 613d 3b19 0a3d 5015 87bc 4e8a 29bd
00000150: be3a 3bbd 12a9 e7bb 33e6 893d 354e 8fbd
00000160: e5a3 1dbd 5544 80bd 2f2f 61bd df1d 043a
00000170: f15e 18bd c647 f53a 314d 5b3d 73d1 c2bc
00000180: 1cc2 acbc 52b8 89bd 62ca 593d b89e 25bc
00000190: 6c6a 433d 348a 2abd 4ee2 583d f9b2 2f3d
000001a0: 863c 6abd 2b6a 5f3d 91be 77bd 0bd8 f43c
000001b0: 1730 963c c2d8 1cbd 773b 813c e527 813d
000001c0: b291 68bc c244 30bd c817 2abd bf7d 89bd
000001d0: 6b6e 153d 1377 33bc 9e53 593d 3043 3e3d
000001e0: 5b5a 64bd 8f24 c53c 6a3c 15bb 84d6 ef3c
000001f0: 1588 18bc df1c a63b c4a9 1f3d 01d9 34bc
00000200: 02cd 83bd f335 243d accd 56bd a262 053d
00000210: 6926 c9bb 582d a63b c5c1 d7bc d55b 293c
00000220: 474b c83b 713e a7bc 2c69 6b3d 25b3 4fbd
00000230: 4736 8dbd 2d69 11bd 7cb4 87bc 32b1 57bd
00000240: f9da 6c3d fde3 473d b952 1b3d e604 593c
00000250: 6ba0 b1bc 6476 4fbd 5c66 8d3d 34df 2f3d
00000260: a5cf 4e3c aa50 d9bc 4a4d a53c 6045 8bbd
00000270: eda4 68ba 05de de3b 74f5 593d 0965 97bd
00000280: cb5f 3e3d d26c 593d 46ec 8bbd 797e 97bd
00000290: 9bca c5bc f8e9 043d 8148 8ebc fa81 863d
000002a0: cd5c 6bbd 445f 7dbc a3f5 b5bc dbad 5b3b
000002b0: 123b ccbb 7e9d 97bd 3e35 ab3b 64f6 96bd
000002c0: c0e5 9e3c 114b 59bd 4e2a 443d 4ba3 96bd
000002d0: 3300 8a3d ce0b 13bd ce41 4bbd e28d 38bd
000002e0: f017 80bc 09ec 50bd a7e5 59bd 782f cb3c
000002f0: 3b06 6c3d 2a6c 8fbd 4a85 13bc 4199 98bd
00000300: dd89 87bd a894 c33c c39a 8dbc 39b9 24bc
00000310: 93b5 903d 86b2 373c e648 33bd 8a64 bc3c
00000320: 710d 62bd b498 e33c a625 c63a 7514 93bd
00000330: ad9c 38bd 7d53 e43b 86fc 253c 0c6e 4d3c
00000340: 7532 62bd ff42 ba3c fc26 013c 8adc 083d
00000350: cf86 b23c 58e2 723b 6ce8 283d 28b3 bcbc
00000360: e625 343d a939 87bd 9507 273a 71d5 4f3d
00000370: 51ed 5c3c 7932 6b3d f980 96bd 66b6 c13c
00000380: d6d1 223d 8442 613d 00c4 73bc 1727 6c3d
00000390: 18ca 27bd 8f27 9d3c 2c0b b73c 655e 813d
000003a0: 436f 403a 4892 9a3b 95a6 43bb dc43 393c
000003b0: be65 ef3c b04f 09bd 1bf6 6d3d a208 95bc
000003c0: 3c88 6fbd b180 0bba f233 4dbc f021 d33c
000003d0: e77a c8bb 79f6 a4bc 4403 ae3c 46f8 1fbd
000003e0: b693 653d 0ff5 813c f25c 31bd 87b4 3d3c
000003f0: 0c90 babc 65d1 353a 65ef 0bbd 87e1 79bd
0.064937085 -0.06962091 0.0662493 0.035974078 -0.0042096055 0.07379729 -0.03637038 0.038189698
-0.042152923 0.054618303 0.03769786 -0.030900942 0.013433207 0.017886369 0.04554003 -0.049266078
-0.0075937547 -0.019843666 -0.04827411 0.028034452 -0.0506175 -0.035668973 0.04883002 -0.004895989
-0.064966224 -0.042958237 0.0018809013 -0.011511646 -0.009768778 -0.06806496 -0.061531626 -0.0064790184
-0.012869938 -0.048578728 -0.03685514 -0.009426373 0.04790823 0.059519347 0.072208166 -0.021494986
-0.073631346 -0.010817026 0.052649748 0.023701927 -0.053239945 0.052502226 0.011278112 0.023007397
-0.060411718 -0.04618755 0.06641375 0.012784426 -0.040577516 -0.022312695 0.06296674 0.0036183842
-0.040933214 -0.04197567 0.038802154 -0.05802381 -0.067119844 -0.015069459 -0.05811126 0.07423763
0.017811297 0.019912811 -0.021443533 -0.04037311 -0.02417181 -0.040176168 -0.0548048 -0.067394406
-0.061880447 -0.03966934 -0.050705794 -0.0037047854 0.0055417665 0.04269139 0.04694323 0.016840696
0.055112924 0.033715468 -0.016489655 -0.041391663 -0.045710318 -0.0070697153 0.0673336 -0.06997339
-0.03848638 -0.06263033 -0.05497664 0.00050398515 -0.03719992 0.0018713407 0.053540412 -0.023781514
-0.021088652 -0.067246094 0.053171523 -0.010108642 0.047708914 -0.041635707 0.052950196 0.04289529
-0.057186626 0.05454461 -0.060484473 0.029888174 0.018333478 -0.038292654 0.015775425 0.063064374
-0.014194893 -0.043034323 -0.041526586 -0.06713437 0.036482256 -0.0109536825 0.05305826 0.046450794
-0.055750232 0.024065284 -0.0022771605 0.029277094 -0.009309788 0.0050693597 0.03898026 -0.011038066
-0.064355865 0.040090512 -0.052442238 0.032564767 -0.006138612 0.0050713234 -0.026337514 0.010336836
0.0061124894 -0.020415517 0.057473347 -0.050707955 -0.06895118 -0.035500694 -0.016565554 -0.05265922
0.057826016 0.04880141 0.037920687 0.013245797 -0.021682939 -0.050650015 0.06904289 0.042937472
0.0126227485 -0.026527721 0.020178456 -0.068003416 -0.00088746735 0.006801369 0.053212598 -0.07392318
0.046478074 0.053082295 -0.06832175 -0.073971696 -0.024144461 0.032449692 -0.017368557 0.0656776
-0.05746155 -0.015464608 -0.022211855 0.0033520374 -0.0062326277 -0.07403086 0.005224853 -0.07371214
0.019396663 -0.053050105 0.047891907 -0.073553644 0.06738319 -0.03589993 -0.049623303 -0.045057185
-0.015636414 -0.05100635 -0.05319753 0.024802908 0.05762313 -0.070030525 -0.009003947 -0.07451106
-0.06618092 0.023874596 -0.01728571 -0.010053926 0.070658825 0.011211997 -0.043770693 0.02299716
-0.0551886 0.027782775 0.0015117421 -0.07181636 -0.045071293 0.0069679604 0.010131007 0.012538444
-0.0552239 0.022737024 0.00788283 0.033413447 0.021792797 0.003706118 0.04123728 -0.023034647
0.043981455 -0.06602795 0.0006371674 0.050740663 0.013484315 0.05742118 -0.07348818 0.023646545
0.039750896 0.054995075 -0.014878273 0.057654466 -0.040964216 0.019183902 0.022344194 0.063168325
0.0007340798 0.004717145 -0.002985393 0.011307683 0.02922332 -0.03352326 0.058096033 -0.018192593
-0.058479533 -0.0005321606 -0.012524592 0.025773019 -0.0061181667 -0.020137059 0.021241792 -0.03905513
0.05604907 0.015863923 -0.04330153 0.011578686 -0.022773765 0.0006935804 -0.03416385 -0.061006095

bias f4 [20]
00000000: 6741 68bd 3550 17bd 1b16 2fbd 9bac 0e3c
00000010: 39f8 7ebd fc0a 18bd 6f44 853a 7c27 1dbb
00000020: d37e 24bb 0f16 20bd 4bed 883c 0830 74bd
00000030: d6ac 72bd 2242 92bd d5bc 7b3d 894b 5b3d
00000040: ec14 7cbc c9a1 c9bc 3fad 3abb 274b b3bc
-0.056702998 -0.036941726 -0.04274569 0.008708145 -0.062248442 -0.03711985 0.001016749 -0.0023979833
-0.0025100007 -0.039083537 0.016714713 -0.05961612 -0.05924686 -0.0714152 0.06145938 0.053538833
-0.015385848 -0.024613278 -0.002848461 -0.021886421
